{"format": "graph-model", "generatedBy": "2.8.0", "convertedBy": "TensorFlow.js Converter v3.18.0", "signature": {"inputs": {"input": {"name": "input:0", "dtype": "DT_FLOAT", "tensorShape": {"dim": [{"size": "1"}, {"size": "3"}, {"size": "256"}, {"size": "256"}]}}}, "outputs": {"output": {"name": "Identity:0", "dtype": "DT_FLOAT", "tensorShape": {"dim": [{"size": "1"}, {"size": "64"}]}}}}, "modelTopology": {"node": [{"name": "unknown_208", "op": "Const", "attr": {"dtype": {"type": "DT_FLOAT"}, "value": {"tensor": {"dtype": "DT_FLOAT", "tensorShape": {"dim": [{"size": "144"}]}}}}}, {"name": "StatefulPartitionedCall/onnx_tf_prefix_/mobilevit/encoder/layer.4/layernorm/ReduceMean_1/reduction_indices", "op": "Const", "attr": {"value": {"tensor": {"dtype": "DT_INT32", "tensorShape": {}}}, "dtype": {"type": "DT_INT32"}}}, {"name": "StatefulPartitionedCall/onnx_tf_prefix_/mobilevit/encoder/layer.4/layernorm/Constant_1", "op": "Const", "attr": {"dtype": {"type": "DT_FLOAT"}, "value": {"tensor": {"dtype": "DT_FLOAT", "tensorShape": {}}}}}, {"name": "unknown_207", "op": "Const", "attr": {"dtype": {"type": "DT_FLOAT"}, "value": {"tensor": {"dtype": "DT_FLOAT", "tensorShape": {"dim": [{"size": "144"}]}}}}}, {"name": "unknown_205", "op": "Const", "attr": {"dtype": {"type": "DT_FLOAT"}, "value": {"tensor": {"dtype": "DT_FLOAT", "tensorShape": {"dim": [{"size": "288"}]}}}}}, {"name": "unknown_202", "op": "Const", "attr": {"dtype": {"type": "DT_FLOAT"}, "value": {"tensor": {"dtype": "DT_FLOAT", "tensorShape": {"dim": [{"size": "144"}]}}}}}, {"name": "StatefulPartitionedCall/onnx_tf_prefix_/mobilevit/encoder/layer.4/transformer/layer.2/layernorm_after/ReduceMean_1/reduction_indices", "op": "Const", "attr": {"dtype": {"type": "DT_INT32"}, "value": {"tensor": {"dtype": "DT_INT32", "tensorShape": {}}}}}, {"name": "StatefulPartitionedCall/onnx_tf_prefix_/mobilevit/encoder/layer.4/transformer/layer.2/layernorm_after/Constant_1", "op": "Const", "attr": {"value": {"tensor": {"dtype": "DT_FLOAT", "tensorShape": {}}}, "dtype": {"type": "DT_FLOAT"}}}, {"name": "StatefulPartitionedCall/onnx_tf_prefix_/mobilevit/encoder/layer.4/transformer/layer.2/layernorm_after/ReduceMean/reduction_indices", "op": "Const", "attr": {"value": {"tensor": {"dtype": "DT_INT32", "tensorShape": {}}}, "dtype": {"type": "DT_INT32"}}}, {"name": "unknown_203", "op": "Const", "attr": {"dtype": {"type": "DT_FLOAT"}, "value": {"tensor": {"dtype": "DT_FLOAT", "tensorShape": {"dim": [{"size": "144"}]}}}}}, {"name": "unknown_204", "op": "Const", "attr": {"value": {"tensor": {"dtype": "DT_FLOAT", "tensorShape": {"dim": [{"size": "144"}, {"size": "288"}]}}}, "dtype": {"type": "DT_FLOAT"}}}, {"name": "unknown_206", "op": "Const", "attr": {"dtype": {"type": "DT_FLOAT"}, "value": {"tensor": {"dtype": "DT_FLOAT", "tensorShape": {"dim": [{"size": "288"}, {"size": "144"}]}}}}}, {"name": "unknown_201", "op": "Const", "attr": {"value": {"tensor": {"dtype": "DT_FLOAT", "tensorShape": {"dim": [{"size": "144"}]}}}, "dtype": {"type": "DT_FLOAT"}}}, {"name": "unknown_195", "op": "Const", "attr": {"value": {"tensor": {"dtype": "DT_FLOAT", "tensorShape": {"dim": [{"size": "144"}]}}}, "dtype": {"type": "DT_FLOAT"}}}, {"name": "unknown_194", "op": "Const", "attr": {"value": {"tensor": {"dtype": "DT_FLOAT", "tensorShape": {"dim": [{"size": "144"}, {"size": "144"}]}}}, "dtype": {"type": "DT_FLOAT"}}}, {"name": "StatefulPartitionedCall/Cast_195", "op": "Const", "attr": {"value": {"tensor": {"dtype": "DT_INT64", "tensorShape": {"dim": [{"size": "1"}]}}}, "dtype": {"type": "DT_INT64"}}}, {"name": "StatefulPartitionedCall/zeros_49", "op": "Const", "attr": {"dtype": {"type": "DT_INT64"}, "value": {"tensor": {"dtype": "DT_INT64", "tensorShape": {}}}}}, {"name": "StatefulPartitionedCall/onnx_tf_prefix_/mobilevit/encoder/layer.4/transformer/layer.2/attention/attention/Transpose_1/perm", "op": "Const", "attr": {"dtype": {"type": "DT_INT32"}, "value": {"tensor": {"dtype": "DT_INT32", "tensorShape": {"dim": [{"size": "4"}]}}}}}, {"name": "unknown_197", "op": "Const", "attr": {"dtype": {"type": "DT_FLOAT"}, "value": {"tensor": {"dtype": "DT_FLOAT", "tensorShape": {"dim": [{"size": "144"}]}}}}}, {"name": "unknown_196", "op": "Const", "attr": {"dtype": {"type": "DT_FLOAT"}, "value": {"tensor": {"dtype": "DT_FLOAT", "tensorShape": {"dim": [{"size": "144"}, {"size": "144"}]}}}}}, {"name": "StatefulPartitionedCall/Cast_185", "op": "Const", "attr": {"dtype": {"type": "DT_INT64"}, "value": {"tensor": {"dtype": "DT_INT64", "tensorShape": {"dim": [{"size": "1"}]}}}}}, {"name": "StatefulPartitionedCall/zeros_47", "op": "Const", "attr": {"dtype": {"type": "DT_INT64"}, "value": {"tensor": {"dtype": "DT_INT64", "tensorShape": {}}}}}, {"name": "StatefulPartitionedCall/onnx_tf_prefix_/mobilevit/encoder/layer.4/transformer/layer.2/attention/attention/Transpose_2/perm", "op": "Const", "attr": {"dtype": {"type": "DT_INT32"}, "value": {"tensor": {"dtype": "DT_INT32", "tensorShape": {"dim": [{"size": "4"}]}}}}}, {"name": "ConstantFolding/StatefulPartitionedCall/onnx_tf_prefix_/mobilevit/encoder/layer.4/transformer/layer.2/attention/attention/Div_recip", "op": "Const", "attr": {"value": {"tensor": {"dtype": "DT_FLOAT", "tensorShape": {}}}, "dtype": {"type": "DT_FLOAT"}}}, {"name": "unknown_199", "op": "Const", "attr": {"value": {"tensor": {"dtype": "DT_FLOAT", "tensorShape": {"dim": [{"size": "144"}]}}}, "dtype": {"type": "DT_FLOAT"}}}, {"name": "unknown_192", "op": "Const", "attr": {"value": {"tensor": {"dtype": "DT_FLOAT", "tensorShape": {"dim": [{"size": "144"}]}}}, "dtype": {"type": "DT_FLOAT"}}}, {"name": "StatefulPartitionedCall/onnx_tf_prefix_/mobilevit/encoder/layer.4/transformer/layer.2/layernorm_before/ReduceMean_1/reduction_indices", "op": "Const", "attr": {"value": {"tensor": {"dtype": "DT_INT32", "tensorShape": {}}}, "dtype": {"type": "DT_INT32"}}}, {"name": "StatefulPartitionedCall/onnx_tf_prefix_/mobilevit/encoder/layer.4/transformer/layer.2/layernorm_before/Constant_1", "op": "Const", "attr": {"dtype": {"type": "DT_FLOAT"}, "value": {"tensor": {"dtype": "DT_FLOAT", "tensorShape": {}}}}}, {"name": "StatefulPartitionedCall/onnx_tf_prefix_/mobilevit/encoder/layer.4/transformer/layer.2/layernorm_before/ReduceMean/reduction_indices", "op": "Const", "attr": {"value": {"tensor": {"dtype": "DT_INT32", "tensorShape": {}}}, "dtype": {"type": "DT_INT32"}}}, {"name": "unknown_193", "op": "Const", "attr": {"value": {"tensor": {"dtype": "DT_FLOAT", "tensorShape": {"dim": [{"size": "144"}]}}}, "dtype": {"type": "DT_FLOAT"}}}, {"name": "unknown_198", "op": "Const", "attr": {"value": {"tensor": {"dtype": "DT_FLOAT", "tensorShape": {"dim": [{"size": "144"}, {"size": "144"}]}}}, "dtype": {"type": "DT_FLOAT"}}}, {"name": "StatefulPartitionedCall/Cast_190", "op": "Const", "attr": {"value": {"tensor": {"dtype": "DT_INT64", "tensorShape": {"dim": [{"size": "1"}]}}}, "dtype": {"type": "DT_INT64"}}}, {"name": "StatefulPartitionedCall/zeros_48", "op": "Const", "attr": {"dtype": {"type": "DT_INT64"}, "value": {"tensor": {"dtype": "DT_INT64", "tensorShape": {}}}}}, {"name": "StatefulPartitionedCall/onnx_tf_prefix_/mobilevit/encoder/layer.4/transformer/layer.2/attention/attention/Transpose/perm", "op": "Const", "attr": {"dtype": {"type": "DT_INT32"}, "value": {"tensor": {"dtype": "DT_INT32", "tensorShape": {"dim": [{"size": "4"}]}}}}}, {"name": "StatefulPartitionedCall/onnx_tf_prefix_/mobilevit/encoder/layer.4/transformer/layer.2/attention/attention/Transpose_3/perm", "op": "Const", "attr": {"dtype": {"type": "DT_INT32"}, "value": {"tensor": {"dtype": "DT_INT32", "tensorShape": {"dim": [{"size": "4"}]}}}}}, {"name": "StatefulPartitionedCall/Cast_200", "op": "Const", "attr": {"dtype": {"type": "DT_INT64"}, "value": {"tensor": {"dtype": "DT_INT64", "tensorShape": {"dim": [{"size": "1"}]}}}}}, {"name": "StatefulPartitionedCall/zeros_50", "op": "Const", "attr": {"dtype": {"type": "DT_INT64"}, "value": {"tensor": {"dtype": "DT_INT64", "tensorShape": {}}}}}, {"name": "unknown_200", "op": "Const", "attr": {"value": {"tensor": {"dtype": "DT_FLOAT", "tensorShape": {"dim": [{"size": "144"}, {"size": "144"}]}}}, "dtype": {"type": "DT_FLOAT"}}}, {"name": "unknown_191", "op": "Const", "attr": {"dtype": {"type": "DT_FLOAT"}, "value": {"tensor": {"dtype": "DT_FLOAT", "tensorShape": {"dim": [{"size": "144"}]}}}}}, {"name": "unknown_189", "op": "Const", "attr": {"dtype": {"type": "DT_FLOAT"}, "value": {"tensor": {"dtype": "DT_FLOAT", "tensorShape": {"dim": [{"size": "288"}]}}}}}, {"name": "unknown_186", "op": "Const", "attr": {"dtype": {"type": "DT_FLOAT"}, "value": {"tensor": {"dtype": "DT_FLOAT", "tensorShape": {"dim": [{"size": "144"}]}}}}}, {"name": "StatefulPartitionedCall/onnx_tf_prefix_/mobilevit/encoder/layer.4/transformer/layer.1/layernorm_after/ReduceMean_1/reduction_indices", "op": "Const", "attr": {"dtype": {"type": "DT_INT32"}, "value": {"tensor": {"dtype": "DT_INT32", "tensorShape": {}}}}}, {"name": "StatefulPartitionedCall/onnx_tf_prefix_/mobilevit/encoder/layer.4/transformer/layer.1/layernorm_after/Constant_1", "op": "Const", "attr": {"dtype": {"type": "DT_FLOAT"}, "value": {"tensor": {"dtype": "DT_FLOAT", "tensorShape": {}}}}}, {"name": "StatefulPartitionedCall/onnx_tf_prefix_/mobilevit/encoder/layer.4/transformer/layer.1/layernorm_after/ReduceMean/reduction_indices", "op": "Const", "attr": {"value": {"tensor": {"dtype": "DT_INT32", "tensorShape": {}}}, "dtype": {"type": "DT_INT32"}}}, {"name": "unknown_187", "op": "Const", "attr": {"value": {"tensor": {"dtype": "DT_FLOAT", "tensorShape": {"dim": [{"size": "144"}]}}}, "dtype": {"type": "DT_FLOAT"}}}, {"name": "unknown_188", "op": "Const", "attr": {"value": {"tensor": {"dtype": "DT_FLOAT", "tensorShape": {"dim": [{"size": "144"}, {"size": "288"}]}}}, "dtype": {"type": "DT_FLOAT"}}}, {"name": "unknown_190", "op": "Const", "attr": {"dtype": {"type": "DT_FLOAT"}, "value": {"tensor": {"dtype": "DT_FLOAT", "tensorShape": {"dim": [{"size": "288"}, {"size": "144"}]}}}}}, {"name": "unknown_185", "op": "Const", "attr": {"dtype": {"type": "DT_FLOAT"}, "value": {"tensor": {"dtype": "DT_FLOAT", "tensorShape": {"dim": [{"size": "144"}]}}}}}, {"name": "unknown_179", "op": "Const", "attr": {"value": {"tensor": {"dtype": "DT_FLOAT", "tensorShape": {"dim": [{"size": "144"}]}}}, "dtype": {"type": "DT_FLOAT"}}}, {"name": "unknown_178", "op": "Const", "attr": {"value": {"tensor": {"dtype": "DT_FLOAT", "tensorShape": {"dim": [{"size": "144"}, {"size": "144"}]}}}, "dtype": {"type": "DT_FLOAT"}}}, {"name": "StatefulPartitionedCall/Cast_175", "op": "Const", "attr": {"dtype": {"type": "DT_INT64"}, "value": {"tensor": {"dtype": "DT_INT64", "tensorShape": {"dim": [{"size": "1"}]}}}}}, {"name": "StatefulPartitionedCall/zeros_45", "op": "Const", "attr": {"value": {"tensor": {"dtype": "DT_INT64", "tensorShape": {}}}, "dtype": {"type": "DT_INT64"}}}, {"name": "StatefulPartitionedCall/onnx_tf_prefix_/mobilevit/encoder/layer.4/transformer/layer.1/attention/attention/Transpose_1/perm", "op": "Const", "attr": {"dtype": {"type": "DT_INT32"}, "value": {"tensor": {"dtype": "DT_INT32", "tensorShape": {"dim": [{"size": "4"}]}}}}}, {"name": "unknown_181", "op": "Const", "attr": {"dtype": {"type": "DT_FLOAT"}, "value": {"tensor": {"dtype": "DT_FLOAT", "tensorShape": {"dim": [{"size": "144"}]}}}}}, {"name": "unknown_180", "op": "Const", "attr": {"dtype": {"type": "DT_FLOAT"}, "value": {"tensor": {"dtype": "DT_FLOAT", "tensorShape": {"dim": [{"size": "144"}, {"size": "144"}]}}}}}, {"name": "StatefulPartitionedCall/Cast_165", "op": "Const", "attr": {"value": {"tensor": {"dtype": "DT_INT64", "tensorShape": {"dim": [{"size": "1"}]}}}, "dtype": {"type": "DT_INT64"}}}, {"name": "StatefulPartitionedCall/zeros_43", "op": "Const", "attr": {"value": {"tensor": {"dtype": "DT_INT64", "tensorShape": {}}}, "dtype": {"type": "DT_INT64"}}}, {"name": "StatefulPartitionedCall/onnx_tf_prefix_/mobilevit/encoder/layer.4/transformer/layer.1/attention/attention/Transpose_2/perm", "op": "Const", "attr": {"dtype": {"type": "DT_INT32"}, "value": {"tensor": {"dtype": "DT_INT32", "tensorShape": {"dim": [{"size": "4"}]}}}}}, {"name": "ConstantFolding/StatefulPartitionedCall/onnx_tf_prefix_/mobilevit/encoder/layer.4/transformer/layer.1/attention/attention/Div_recip", "op": "Const", "attr": {"dtype": {"type": "DT_FLOAT"}, "value": {"tensor": {"dtype": "DT_FLOAT", "tensorShape": {}}}}}, {"name": "unknown_183", "op": "Const", "attr": {"value": {"tensor": {"dtype": "DT_FLOAT", "tensorShape": {"dim": [{"size": "144"}]}}}, "dtype": {"type": "DT_FLOAT"}}}, {"name": "unknown_176", "op": "Const", "attr": {"dtype": {"type": "DT_FLOAT"}, "value": {"tensor": {"dtype": "DT_FLOAT", "tensorShape": {"dim": [{"size": "144"}]}}}}}, {"name": "StatefulPartitionedCall/onnx_tf_prefix_/mobilevit/encoder/layer.4/transformer/layer.1/layernorm_before/ReduceMean_1/reduction_indices", "op": "Const", "attr": {"value": {"tensor": {"dtype": "DT_INT32", "tensorShape": {}}}, "dtype": {"type": "DT_INT32"}}}, {"name": "StatefulPartitionedCall/onnx_tf_prefix_/mobilevit/encoder/layer.4/transformer/layer.1/layernorm_before/Constant_1", "op": "Const", "attr": {"value": {"tensor": {"dtype": "DT_FLOAT", "tensorShape": {}}}, "dtype": {"type": "DT_FLOAT"}}}, {"name": "StatefulPartitionedCall/onnx_tf_prefix_/mobilevit/encoder/layer.4/transformer/layer.1/layernorm_before/ReduceMean/reduction_indices", "op": "Const", "attr": {"dtype": {"type": "DT_INT32"}, "value": {"tensor": {"dtype": "DT_INT32", "tensorShape": {}}}}}, {"name": "unknown_177", "op": "Const", "attr": {"dtype": {"type": "DT_FLOAT"}, "value": {"tensor": {"dtype": "DT_FLOAT", "tensorShape": {"dim": [{"size": "144"}]}}}}}, {"name": "unknown_182", "op": "Const", "attr": {"dtype": {"type": "DT_FLOAT"}, "value": {"tensor": {"dtype": "DT_FLOAT", "tensorShape": {"dim": [{"size": "144"}, {"size": "144"}]}}}}}, {"name": "StatefulPartitionedCall/Cast_170", "op": "Const", "attr": {"value": {"tensor": {"dtype": "DT_INT64", "tensorShape": {"dim": [{"size": "1"}]}}}, "dtype": {"type": "DT_INT64"}}}, {"name": "StatefulPartitionedCall/zeros_44", "op": "Const", "attr": {"value": {"tensor": {"dtype": "DT_INT64", "tensorShape": {}}}, "dtype": {"type": "DT_INT64"}}}, {"name": "StatefulPartitionedCall/onnx_tf_prefix_/mobilevit/encoder/layer.4/transformer/layer.1/attention/attention/Transpose/perm", "op": "Const", "attr": {"dtype": {"type": "DT_INT32"}, "value": {"tensor": {"dtype": "DT_INT32", "tensorShape": {"dim": [{"size": "4"}]}}}}}, {"name": "StatefulPartitionedCall/onnx_tf_prefix_/mobilevit/encoder/layer.4/transformer/layer.1/attention/attention/Transpose_3/perm", "op": "Const", "attr": {"value": {"tensor": {"dtype": "DT_INT32", "tensorShape": {"dim": [{"size": "4"}]}}}, "dtype": {"type": "DT_INT32"}}}, {"name": "StatefulPartitionedCall/Cast_180", "op": "Const", "attr": {"dtype": {"type": "DT_INT64"}, "value": {"tensor": {"dtype": "DT_INT64", "tensorShape": {"dim": [{"size": "1"}]}}}}}, {"name": "StatefulPartitionedCall/zeros_46", "op": "Const", "attr": {"value": {"tensor": {"dtype": "DT_INT64", "tensorShape": {}}}, "dtype": {"type": "DT_INT64"}}}, {"name": "unknown_184", "op": "Const", "attr": {"value": {"tensor": {"dtype": "DT_FLOAT", "tensorShape": {"dim": [{"size": "144"}, {"size": "144"}]}}}, "dtype": {"type": "DT_FLOAT"}}}, {"name": "unknown_175", "op": "Const", "attr": {"dtype": {"type": "DT_FLOAT"}, "value": {"tensor": {"dtype": "DT_FLOAT", "tensorShape": {"dim": [{"size": "144"}]}}}}}, {"name": "unknown_173", "op": "Const", "attr": {"dtype": {"type": "DT_FLOAT"}, "value": {"tensor": {"dtype": "DT_FLOAT", "tensorShape": {"dim": [{"size": "288"}]}}}}}, {"name": "unknown_170", "op": "Const", "attr": {"value": {"tensor": {"dtype": "DT_FLOAT", "tensorShape": {"dim": [{"size": "144"}]}}}, "dtype": {"type": "DT_FLOAT"}}}, {"name": "StatefulPartitionedCall/onnx_tf_prefix_/mobilevit/encoder/layer.4/transformer/layer.0/layernorm_after/ReduceMean_1/reduction_indices", "op": "Const", "attr": {"value": {"tensor": {"dtype": "DT_INT32", "tensorShape": {}}}, "dtype": {"type": "DT_INT32"}}}, {"name": "StatefulPartitionedCall/onnx_tf_prefix_/mobilevit/encoder/layer.4/transformer/layer.0/layernorm_after/Constant_1", "op": "Const", "attr": {"dtype": {"type": "DT_FLOAT"}, "value": {"tensor": {"dtype": "DT_FLOAT", "tensorShape": {}}}}}, {"name": "StatefulPartitionedCall/onnx_tf_prefix_/mobilevit/encoder/layer.4/transformer/layer.0/layernorm_after/ReduceMean/reduction_indices", "op": "Const", "attr": {"dtype": {"type": "DT_INT32"}, "value": {"tensor": {"dtype": "DT_INT32", "tensorShape": {}}}}}, {"name": "unknown_171", "op": "Const", "attr": {"value": {"tensor": {"dtype": "DT_FLOAT", "tensorShape": {"dim": [{"size": "144"}]}}}, "dtype": {"type": "DT_FLOAT"}}}, {"name": "unknown_172", "op": "Const", "attr": {"value": {"tensor": {"dtype": "DT_FLOAT", "tensorShape": {"dim": [{"size": "144"}, {"size": "288"}]}}}, "dtype": {"type": "DT_FLOAT"}}}, {"name": "unknown_174", "op": "Const", "attr": {"value": {"tensor": {"dtype": "DT_FLOAT", "tensorShape": {"dim": [{"size": "288"}, {"size": "144"}]}}}, "dtype": {"type": "DT_FLOAT"}}}, {"name": "unknown_169", "op": "Const", "attr": {"dtype": {"type": "DT_FLOAT"}, "value": {"tensor": {"dtype": "DT_FLOAT", "tensorShape": {"dim": [{"size": "144"}]}}}}}, {"name": "unknown_163", "op": "Const", "attr": {"value": {"tensor": {"dtype": "DT_FLOAT", "tensorShape": {"dim": [{"size": "144"}]}}}, "dtype": {"type": "DT_FLOAT"}}}, {"name": "unknown_162", "op": "Const", "attr": {"dtype": {"type": "DT_FLOAT"}, "value": {"tensor": {"dtype": "DT_FLOAT", "tensorShape": {"dim": [{"size": "144"}, {"size": "144"}]}}}}}, {"name": "StatefulPartitionedCall/Cast_155", "op": "Const", "attr": {"value": {"tensor": {"dtype": "DT_INT64", "tensorShape": {"dim": [{"size": "1"}]}}}, "dtype": {"type": "DT_INT64"}}}, {"name": "StatefulPartitionedCall/zeros_41", "op": "Const", "attr": {"value": {"tensor": {"dtype": "DT_INT64", "tensorShape": {}}}, "dtype": {"type": "DT_INT64"}}}, {"name": "StatefulPartitionedCall/onnx_tf_prefix_/mobilevit/encoder/layer.4/transformer/layer.0/attention/attention/Transpose_1/perm", "op": "Const", "attr": {"dtype": {"type": "DT_INT32"}, "value": {"tensor": {"dtype": "DT_INT32", "tensorShape": {"dim": [{"size": "4"}]}}}}}, {"name": "unknown_165", "op": "Const", "attr": {"dtype": {"type": "DT_FLOAT"}, "value": {"tensor": {"dtype": "DT_FLOAT", "tensorShape": {"dim": [{"size": "144"}]}}}}}, {"name": "unknown_164", "op": "Const", "attr": {"value": {"tensor": {"dtype": "DT_FLOAT", "tensorShape": {"dim": [{"size": "144"}, {"size": "144"}]}}}, "dtype": {"type": "DT_FLOAT"}}}, {"name": "StatefulPartitionedCall/Cast_145", "op": "Const", "attr": {"dtype": {"type": "DT_INT64"}, "value": {"tensor": {"dtype": "DT_INT64", "tensorShape": {"dim": [{"size": "1"}]}}}}}, {"name": "StatefulPartitionedCall/zeros_39", "op": "Const", "attr": {"dtype": {"type": "DT_INT64"}, "value": {"tensor": {"dtype": "DT_INT64", "tensorShape": {}}}}}, {"name": "StatefulPartitionedCall/onnx_tf_prefix_/mobilevit/encoder/layer.4/transformer/layer.0/attention/attention/Transpose_2/perm", "op": "Const", "attr": {"dtype": {"type": "DT_INT32"}, "value": {"tensor": {"dtype": "DT_INT32", "tensorShape": {"dim": [{"size": "4"}]}}}}}, {"name": "ConstantFolding/StatefulPartitionedCall/onnx_tf_prefix_/mobilevit/encoder/layer.4/transformer/layer.0/attention/attention/Div_recip", "op": "Const", "attr": {"dtype": {"type": "DT_FLOAT"}, "value": {"tensor": {"dtype": "DT_FLOAT", "tensorShape": {}}}}}, {"name": "unknown_167", "op": "Const", "attr": {"value": {"tensor": {"dtype": "DT_FLOAT", "tensorShape": {"dim": [{"size": "144"}]}}}, "dtype": {"type": "DT_FLOAT"}}}, {"name": "unknown_160", "op": "Const", "attr": {"value": {"tensor": {"dtype": "DT_FLOAT", "tensorShape": {"dim": [{"size": "144"}]}}}, "dtype": {"type": "DT_FLOAT"}}}, {"name": "StatefulPartitionedCall/onnx_tf_prefix_/mobilevit/encoder/layer.4/transformer/layer.0/layernorm_before/ReduceMean/reduction_indices", "op": "Const", "attr": {"value": {"tensor": {"dtype": "DT_INT32", "tensorShape": {}}}, "dtype": {"type": "DT_INT32"}}}, {"name": "StatefulPartitionedCall/onnx_tf_prefix_/mobilevit/encoder/layer.4/transformer/layer.0/layernorm_before/ReduceMean_1/reduction_indices", "op": "Const", "attr": {"value": {"tensor": {"dtype": "DT_INT32", "tensorShape": {}}}, "dtype": {"type": "DT_INT32"}}}, {"name": "StatefulPartitionedCall/onnx_tf_prefix_/mobilevit/encoder/layer.4/transformer/layer.0/layernorm_before/Constant_1", "op": "Const", "attr": {"dtype": {"type": "DT_FLOAT"}, "value": {"tensor": {"dtype": "DT_FLOAT", "tensorShape": {}}}}}, {"name": "unknown_161", "op": "Const", "attr": {"dtype": {"type": "DT_FLOAT"}, "value": {"tensor": {"dtype": "DT_FLOAT", "tensorShape": {"dim": [{"size": "144"}]}}}}}, {"name": "unknown_166", "op": "Const", "attr": {"value": {"tensor": {"dtype": "DT_FLOAT", "tensorShape": {"dim": [{"size": "144"}, {"size": "144"}]}}}, "dtype": {"type": "DT_FLOAT"}}}, {"name": "StatefulPartitionedCall/Cast_150", "op": "Const", "attr": {"dtype": {"type": "DT_INT64"}, "value": {"tensor": {"dtype": "DT_INT64", "tensorShape": {"dim": [{"size": "1"}]}}}}}, {"name": "StatefulPartitionedCall/zeros_40", "op": "Const", "attr": {"value": {"tensor": {"dtype": "DT_INT64", "tensorShape": {}}}, "dtype": {"type": "DT_INT64"}}}, {"name": "StatefulPartitionedCall/onnx_tf_prefix_/mobilevit/encoder/layer.4/transformer/layer.0/attention/attention/Transpose/perm", "op": "Const", "attr": {"dtype": {"type": "DT_INT32"}, "value": {"tensor": {"dtype": "DT_INT32", "tensorShape": {"dim": [{"size": "4"}]}}}}}, {"name": "StatefulPartitionedCall/onnx_tf_prefix_/mobilevit/encoder/layer.4/transformer/layer.0/attention/attention/Transpose_3/perm", "op": "Const", "attr": {"value": {"tensor": {"dtype": "DT_INT32", "tensorShape": {"dim": [{"size": "4"}]}}}, "dtype": {"type": "DT_INT32"}}}, {"name": "StatefulPartitionedCall/Cast_160", "op": "Const", "attr": {"dtype": {"type": "DT_INT64"}, "value": {"tensor": {"dtype": "DT_INT64", "tensorShape": {"dim": [{"size": "1"}]}}}}}, {"name": "StatefulPartitionedCall/zeros_42", "op": "Const", "attr": {"value": {"tensor": {"dtype": "DT_INT64", "tensorShape": {}}}, "dtype": {"type": "DT_INT64"}}}, {"name": "unknown_168", "op": "Const", "attr": {"dtype": {"type": "DT_FLOAT"}, "value": {"tensor": {"dtype": "DT_FLOAT", "tensorShape": {"dim": [{"size": "144"}, {"size": "144"}]}}}}}, {"name": "unknown_145", "op": "Const", "attr": {"value": {"tensor": {"dtype": "DT_FLOAT", "tensorShape": {"dim": [{"size": "120"}]}}}, "dtype": {"type": "DT_FLOAT"}}}, {"name": "StatefulPartitionedCall/onnx_tf_prefix_/mobilevit/encoder/layer.3/layernorm/ReduceMean_1/reduction_indices", "op": "Const", "attr": {"dtype": {"type": "DT_INT32"}, "value": {"tensor": {"dtype": "DT_INT32", "tensorShape": {}}}}}, {"name": "StatefulPartitionedCall/onnx_tf_prefix_/mobilevit/encoder/layer.3/layernorm/Constant_1", "op": "Const", "attr": {"dtype": {"type": "DT_FLOAT"}, "value": {"tensor": {"dtype": "DT_FLOAT", "tensorShape": {}}}}}, {"name": "unknown_144", "op": "Const", "attr": {"value": {"tensor": {"dtype": "DT_FLOAT", "tensorShape": {"dim": [{"size": "120"}]}}}, "dtype": {"type": "DT_FLOAT"}}}, {"name": "unknown_142", "op": "Const", "attr": {"value": {"tensor": {"dtype": "DT_FLOAT", "tensorShape": {"dim": [{"size": "240"}]}}}, "dtype": {"type": "DT_FLOAT"}}}, {"name": "unknown_139", "op": "Const", "attr": {"dtype": {"type": "DT_FLOAT"}, "value": {"tensor": {"dtype": "DT_FLOAT", "tensorShape": {"dim": [{"size": "120"}]}}}}}, {"name": "StatefulPartitionedCall/onnx_tf_prefix_/mobilevit/encoder/layer.3/transformer/layer.3/layernorm_after/ReduceMean_1/reduction_indices", "op": "Const", "attr": {"value": {"tensor": {"dtype": "DT_INT32", "tensorShape": {}}}, "dtype": {"type": "DT_INT32"}}}, {"name": "StatefulPartitionedCall/onnx_tf_prefix_/mobilevit/encoder/layer.3/transformer/layer.3/layernorm_after/Constant_1", "op": "Const", "attr": {"dtype": {"type": "DT_FLOAT"}, "value": {"tensor": {"dtype": "DT_FLOAT", "tensorShape": {}}}}}, {"name": "StatefulPartitionedCall/onnx_tf_prefix_/mobilevit/encoder/layer.3/transformer/layer.3/layernorm_after/ReduceMean/reduction_indices", "op": "Const", "attr": {"dtype": {"type": "DT_INT32"}, "value": {"tensor": {"dtype": "DT_INT32", "tensorShape": {}}}}}, {"name": "unknown_140", "op": "Const", "attr": {"dtype": {"type": "DT_FLOAT"}, "value": {"tensor": {"dtype": "DT_FLOAT", "tensorShape": {"dim": [{"size": "120"}]}}}}}, {"name": "unknown_141", "op": "Const", "attr": {"value": {"tensor": {"dtype": "DT_FLOAT", "tensorShape": {"dim": [{"size": "120"}, {"size": "240"}]}}}, "dtype": {"type": "DT_FLOAT"}}}, {"name": "unknown_143", "op": "Const", "attr": {"value": {"tensor": {"dtype": "DT_FLOAT", "tensorShape": {"dim": [{"size": "240"}, {"size": "120"}]}}}, "dtype": {"type": "DT_FLOAT"}}}, {"name": "unknown_138", "op": "Const", "attr": {"value": {"tensor": {"dtype": "DT_FLOAT", "tensorShape": {"dim": [{"size": "120"}]}}}, "dtype": {"type": "DT_FLOAT"}}}, {"name": "unknown_132", "op": "Const", "attr": {"value": {"tensor": {"dtype": "DT_FLOAT", "tensorShape": {"dim": [{"size": "120"}]}}}, "dtype": {"type": "DT_FLOAT"}}}, {"name": "unknown_131", "op": "Const", "attr": {"dtype": {"type": "DT_FLOAT"}, "value": {"tensor": {"dtype": "DT_FLOAT", "tensorShape": {"dim": [{"size": "120"}, {"size": "120"}]}}}}}, {"name": "StatefulPartitionedCall/Cast_127", "op": "Const", "attr": {"value": {"tensor": {"dtype": "DT_INT64", "tensorShape": {"dim": [{"size": "1"}]}}}, "dtype": {"type": "DT_INT64"}}}, {"name": "StatefulPartitionedCall/zeros_31", "op": "Const", "attr": {"dtype": {"type": "DT_INT64"}, "value": {"tensor": {"dtype": "DT_INT64", "tensorShape": {}}}}}, {"name": "StatefulPartitionedCall/onnx_tf_prefix_/mobilevit/encoder/layer.3/transformer/layer.3/attention/attention/Transpose_1/perm", "op": "Const", "attr": {"value": {"tensor": {"dtype": "DT_INT32", "tensorShape": {"dim": [{"size": "4"}]}}}, "dtype": {"type": "DT_INT32"}}}, {"name": "unknown_134", "op": "Const", "attr": {"dtype": {"type": "DT_FLOAT"}, "value": {"tensor": {"dtype": "DT_FLOAT", "tensorShape": {"dim": [{"size": "120"}]}}}}}, {"name": "unknown_133", "op": "Const", "attr": {"value": {"tensor": {"dtype": "DT_FLOAT", "tensorShape": {"dim": [{"size": "120"}, {"size": "120"}]}}}, "dtype": {"type": "DT_FLOAT"}}}, {"name": "StatefulPartitionedCall/Cast_117", "op": "Const", "attr": {"dtype": {"type": "DT_INT64"}, "value": {"tensor": {"dtype": "DT_INT64", "tensorShape": {"dim": [{"size": "1"}]}}}}}, {"name": "StatefulPartitionedCall/zeros_29", "op": "Const", "attr": {"value": {"tensor": {"dtype": "DT_INT64", "tensorShape": {}}}, "dtype": {"type": "DT_INT64"}}}, {"name": "StatefulPartitionedCall/onnx_tf_prefix_/mobilevit/encoder/layer.3/transformer/layer.3/attention/attention/Transpose_2/perm", "op": "Const", "attr": {"dtype": {"type": "DT_INT32"}, "value": {"tensor": {"dtype": "DT_INT32", "tensorShape": {"dim": [{"size": "4"}]}}}}}, {"name": "ConstantFolding/StatefulPartitionedCall/onnx_tf_prefix_/mobilevit/encoder/layer.3/transformer/layer.3/attention/attention/Div_recip", "op": "Const", "attr": {"value": {"tensor": {"dtype": "DT_FLOAT", "tensorShape": {}}}, "dtype": {"type": "DT_FLOAT"}}}, {"name": "unknown_136", "op": "Const", "attr": {"value": {"tensor": {"dtype": "DT_FLOAT", "tensorShape": {"dim": [{"size": "120"}]}}}, "dtype": {"type": "DT_FLOAT"}}}, {"name": "unknown_129", "op": "Const", "attr": {"dtype": {"type": "DT_FLOAT"}, "value": {"tensor": {"dtype": "DT_FLOAT", "tensorShape": {"dim": [{"size": "120"}]}}}}}, {"name": "StatefulPartitionedCall/onnx_tf_prefix_/mobilevit/encoder/layer.3/transformer/layer.3/layernorm_before/ReduceMean_1/reduction_indices", "op": "Const", "attr": {"dtype": {"type": "DT_INT32"}, "value": {"tensor": {"dtype": "DT_INT32", "tensorShape": {}}}}}, {"name": "StatefulPartitionedCall/onnx_tf_prefix_/mobilevit/encoder/layer.3/transformer/layer.3/layernorm_before/Constant_1", "op": "Const", "attr": {"dtype": {"type": "DT_FLOAT"}, "value": {"tensor": {"dtype": "DT_FLOAT", "tensorShape": {}}}}}, {"name": "StatefulPartitionedCall/onnx_tf_prefix_/mobilevit/encoder/layer.3/transformer/layer.3/layernorm_before/ReduceMean/reduction_indices", "op": "Const", "attr": {"value": {"tensor": {"dtype": "DT_INT32", "tensorShape": {}}}, "dtype": {"type": "DT_INT32"}}}, {"name": "unknown_130", "op": "Const", "attr": {"dtype": {"type": "DT_FLOAT"}, "value": {"tensor": {"dtype": "DT_FLOAT", "tensorShape": {"dim": [{"size": "120"}]}}}}}, {"name": "unknown_135", "op": "Const", "attr": {"value": {"tensor": {"dtype": "DT_FLOAT", "tensorShape": {"dim": [{"size": "120"}, {"size": "120"}]}}}, "dtype": {"type": "DT_FLOAT"}}}, {"name": "StatefulPartitionedCall/Cast_122", "op": "Const", "attr": {"dtype": {"type": "DT_INT64"}, "value": {"tensor": {"dtype": "DT_INT64", "tensorShape": {"dim": [{"size": "1"}]}}}}}, {"name": "StatefulPartitionedCall/zeros_30", "op": "Const", "attr": {"value": {"tensor": {"dtype": "DT_INT64", "tensorShape": {}}}, "dtype": {"type": "DT_INT64"}}}, {"name": "StatefulPartitionedCall/onnx_tf_prefix_/mobilevit/encoder/layer.3/transformer/layer.3/attention/attention/Transpose/perm", "op": "Const", "attr": {"dtype": {"type": "DT_INT32"}, "value": {"tensor": {"dtype": "DT_INT32", "tensorShape": {"dim": [{"size": "4"}]}}}}}, {"name": "StatefulPartitionedCall/onnx_tf_prefix_/mobilevit/encoder/layer.3/transformer/layer.3/attention/attention/Transpose_3/perm", "op": "Const", "attr": {"dtype": {"type": "DT_INT32"}, "value": {"tensor": {"dtype": "DT_INT32", "tensorShape": {"dim": [{"size": "4"}]}}}}}, {"name": "StatefulPartitionedCall/Cast_132", "op": "Const", "attr": {"value": {"tensor": {"dtype": "DT_INT64", "tensorShape": {"dim": [{"size": "1"}]}}}, "dtype": {"type": "DT_INT64"}}}, {"name": "StatefulPartitionedCall/zeros_32", "op": "Const", "attr": {"dtype": {"type": "DT_INT64"}, "value": {"tensor": {"dtype": "DT_INT64", "tensorShape": {}}}}}, {"name": "unknown_137", "op": "Const", "attr": {"dtype": {"type": "DT_FLOAT"}, "value": {"tensor": {"dtype": "DT_FLOAT", "tensorShape": {"dim": [{"size": "120"}, {"size": "120"}]}}}}}, {"name": "unknown_128", "op": "Const", "attr": {"value": {"tensor": {"dtype": "DT_FLOAT", "tensorShape": {"dim": [{"size": "120"}]}}}, "dtype": {"type": "DT_FLOAT"}}}, {"name": "unknown_126", "op": "Const", "attr": {"value": {"tensor": {"dtype": "DT_FLOAT", "tensorShape": {"dim": [{"size": "240"}]}}}, "dtype": {"type": "DT_FLOAT"}}}, {"name": "unknown_123", "op": "Const", "attr": {"dtype": {"type": "DT_FLOAT"}, "value": {"tensor": {"dtype": "DT_FLOAT", "tensorShape": {"dim": [{"size": "120"}]}}}}}, {"name": "StatefulPartitionedCall/onnx_tf_prefix_/mobilevit/encoder/layer.3/transformer/layer.2/layernorm_after/ReduceMean_1/reduction_indices", "op": "Const", "attr": {"value": {"tensor": {"dtype": "DT_INT32", "tensorShape": {}}}, "dtype": {"type": "DT_INT32"}}}, {"name": "StatefulPartitionedCall/onnx_tf_prefix_/mobilevit/encoder/layer.3/transformer/layer.2/layernorm_after/Constant_1", "op": "Const", "attr": {"dtype": {"type": "DT_FLOAT"}, "value": {"tensor": {"dtype": "DT_FLOAT", "tensorShape": {}}}}}, {"name": "StatefulPartitionedCall/onnx_tf_prefix_/mobilevit/encoder/layer.3/transformer/layer.2/layernorm_after/ReduceMean/reduction_indices", "op": "Const", "attr": {"value": {"tensor": {"dtype": "DT_INT32", "tensorShape": {}}}, "dtype": {"type": "DT_INT32"}}}, {"name": "unknown_124", "op": "Const", "attr": {"dtype": {"type": "DT_FLOAT"}, "value": {"tensor": {"dtype": "DT_FLOAT", "tensorShape": {"dim": [{"size": "120"}]}}}}}, {"name": "unknown_125", "op": "Const", "attr": {"value": {"tensor": {"dtype": "DT_FLOAT", "tensorShape": {"dim": [{"size": "120"}, {"size": "240"}]}}}, "dtype": {"type": "DT_FLOAT"}}}, {"name": "unknown_127", "op": "Const", "attr": {"value": {"tensor": {"dtype": "DT_FLOAT", "tensorShape": {"dim": [{"size": "240"}, {"size": "120"}]}}}, "dtype": {"type": "DT_FLOAT"}}}, {"name": "unknown_122", "op": "Const", "attr": {"dtype": {"type": "DT_FLOAT"}, "value": {"tensor": {"dtype": "DT_FLOAT", "tensorShape": {"dim": [{"size": "120"}]}}}}}, {"name": "unknown_116", "op": "Const", "attr": {"value": {"tensor": {"dtype": "DT_FLOAT", "tensorShape": {"dim": [{"size": "120"}]}}}, "dtype": {"type": "DT_FLOAT"}}}, {"name": "unknown_115", "op": "Const", "attr": {"value": {"tensor": {"dtype": "DT_FLOAT", "tensorShape": {"dim": [{"size": "120"}, {"size": "120"}]}}}, "dtype": {"type": "DT_FLOAT"}}}, {"name": "StatefulPartitionedCall/Cast_107", "op": "Const", "attr": {"value": {"tensor": {"dtype": "DT_INT64", "tensorShape": {"dim": [{"size": "1"}]}}}, "dtype": {"type": "DT_INT64"}}}, {"name": "StatefulPartitionedCall/zeros_27", "op": "Const", "attr": {"dtype": {"type": "DT_INT64"}, "value": {"tensor": {"dtype": "DT_INT64", "tensorShape": {}}}}}, {"name": "StatefulPartitionedCall/onnx_tf_prefix_/mobilevit/encoder/layer.3/transformer/layer.2/attention/attention/Transpose_1/perm", "op": "Const", "attr": {"dtype": {"type": "DT_INT32"}, "value": {"tensor": {"dtype": "DT_INT32", "tensorShape": {"dim": [{"size": "4"}]}}}}}, {"name": "unknown_118", "op": "Const", "attr": {"value": {"tensor": {"dtype": "DT_FLOAT", "tensorShape": {"dim": [{"size": "120"}]}}}, "dtype": {"type": "DT_FLOAT"}}}, {"name": "unknown_117", "op": "Const", "attr": {"value": {"tensor": {"dtype": "DT_FLOAT", "tensorShape": {"dim": [{"size": "120"}, {"size": "120"}]}}}, "dtype": {"type": "DT_FLOAT"}}}, {"name": "StatefulPartitionedCall/Cast_97", "op": "Const", "attr": {"dtype": {"type": "DT_INT64"}, "value": {"tensor": {"dtype": "DT_INT64", "tensorShape": {"dim": [{"size": "1"}]}}}}}, {"name": "StatefulPartitionedCall/zeros_25", "op": "Const", "attr": {"value": {"tensor": {"dtype": "DT_INT64", "tensorShape": {}}}, "dtype": {"type": "DT_INT64"}}}, {"name": "StatefulPartitionedCall/onnx_tf_prefix_/mobilevit/encoder/layer.3/transformer/layer.2/attention/attention/Transpose_2/perm", "op": "Const", "attr": {"value": {"tensor": {"dtype": "DT_INT32", "tensorShape": {"dim": [{"size": "4"}]}}}, "dtype": {"type": "DT_INT32"}}}, {"name": "ConstantFolding/StatefulPartitionedCall/onnx_tf_prefix_/mobilevit/encoder/layer.3/transformer/layer.2/attention/attention/Div_recip", "op": "Const", "attr": {"dtype": {"type": "DT_FLOAT"}, "value": {"tensor": {"dtype": "DT_FLOAT", "tensorShape": {}}}}}, {"name": "unknown_120", "op": "Const", "attr": {"value": {"tensor": {"dtype": "DT_FLOAT", "tensorShape": {"dim": [{"size": "120"}]}}}, "dtype": {"type": "DT_FLOAT"}}}, {"name": "unknown_113", "op": "Const", "attr": {"dtype": {"type": "DT_FLOAT"}, "value": {"tensor": {"dtype": "DT_FLOAT", "tensorShape": {"dim": [{"size": "120"}]}}}}}, {"name": "StatefulPartitionedCall/onnx_tf_prefix_/mobilevit/encoder/layer.3/transformer/layer.2/layernorm_before/ReduceMean_1/reduction_indices", "op": "Const", "attr": {"dtype": {"type": "DT_INT32"}, "value": {"tensor": {"dtype": "DT_INT32", "tensorShape": {}}}}}, {"name": "StatefulPartitionedCall/onnx_tf_prefix_/mobilevit/encoder/layer.3/transformer/layer.2/layernorm_before/Constant_1", "op": "Const", "attr": {"value": {"tensor": {"dtype": "DT_FLOAT", "tensorShape": {}}}, "dtype": {"type": "DT_FLOAT"}}}, {"name": "StatefulPartitionedCall/onnx_tf_prefix_/mobilevit/encoder/layer.3/transformer/layer.2/layernorm_before/ReduceMean/reduction_indices", "op": "Const", "attr": {"dtype": {"type": "DT_INT32"}, "value": {"tensor": {"dtype": "DT_INT32", "tensorShape": {}}}}}, {"name": "unknown_114", "op": "Const", "attr": {"value": {"tensor": {"dtype": "DT_FLOAT", "tensorShape": {"dim": [{"size": "120"}]}}}, "dtype": {"type": "DT_FLOAT"}}}, {"name": "unknown_119", "op": "Const", "attr": {"dtype": {"type": "DT_FLOAT"}, "value": {"tensor": {"dtype": "DT_FLOAT", "tensorShape": {"dim": [{"size": "120"}, {"size": "120"}]}}}}}, {"name": "StatefulPartitionedCall/Cast_102", "op": "Const", "attr": {"value": {"tensor": {"dtype": "DT_INT64", "tensorShape": {"dim": [{"size": "1"}]}}}, "dtype": {"type": "DT_INT64"}}}, {"name": "StatefulPartitionedCall/zeros_26", "op": "Const", "attr": {"value": {"tensor": {"dtype": "DT_INT64", "tensorShape": {}}}, "dtype": {"type": "DT_INT64"}}}, {"name": "StatefulPartitionedCall/onnx_tf_prefix_/mobilevit/encoder/layer.3/transformer/layer.2/attention/attention/Transpose/perm", "op": "Const", "attr": {"value": {"tensor": {"dtype": "DT_INT32", "tensorShape": {"dim": [{"size": "4"}]}}}, "dtype": {"type": "DT_INT32"}}}, {"name": "StatefulPartitionedCall/onnx_tf_prefix_/mobilevit/encoder/layer.3/transformer/layer.2/attention/attention/Transpose_3/perm", "op": "Const", "attr": {"value": {"tensor": {"dtype": "DT_INT32", "tensorShape": {"dim": [{"size": "4"}]}}}, "dtype": {"type": "DT_INT32"}}}, {"name": "StatefulPartitionedCall/Cast_112", "op": "Const", "attr": {"value": {"tensor": {"dtype": "DT_INT64", "tensorShape": {"dim": [{"size": "1"}]}}}, "dtype": {"type": "DT_INT64"}}}, {"name": "StatefulPartitionedCall/zeros_28", "op": "Const", "attr": {"dtype": {"type": "DT_INT64"}, "value": {"tensor": {"dtype": "DT_INT64", "tensorShape": {}}}}}, {"name": "unknown_121", "op": "Const", "attr": {"dtype": {"type": "DT_FLOAT"}, "value": {"tensor": {"dtype": "DT_FLOAT", "tensorShape": {"dim": [{"size": "120"}, {"size": "120"}]}}}}}, {"name": "unknown_112", "op": "Const", "attr": {"value": {"tensor": {"dtype": "DT_FLOAT", "tensorShape": {"dim": [{"size": "120"}]}}}, "dtype": {"type": "DT_FLOAT"}}}, {"name": "unknown_110", "op": "Const", "attr": {"dtype": {"type": "DT_FLOAT"}, "value": {"tensor": {"dtype": "DT_FLOAT", "tensorShape": {"dim": [{"size": "240"}]}}}}}, {"name": "unknown_107", "op": "Const", "attr": {"value": {"tensor": {"dtype": "DT_FLOAT", "tensorShape": {"dim": [{"size": "120"}]}}}, "dtype": {"type": "DT_FLOAT"}}}, {"name": "StatefulPartitionedCall/onnx_tf_prefix_/mobilevit/encoder/layer.3/transformer/layer.1/layernorm_after/ReduceMean_1/reduction_indices", "op": "Const", "attr": {"dtype": {"type": "DT_INT32"}, "value": {"tensor": {"dtype": "DT_INT32", "tensorShape": {}}}}}, {"name": "StatefulPartitionedCall/onnx_tf_prefix_/mobilevit/encoder/layer.3/transformer/layer.1/layernorm_after/Constant_1", "op": "Const", "attr": {"dtype": {"type": "DT_FLOAT"}, "value": {"tensor": {"dtype": "DT_FLOAT", "tensorShape": {}}}}}, {"name": "StatefulPartitionedCall/onnx_tf_prefix_/mobilevit/encoder/layer.3/transformer/layer.1/layernorm_after/ReduceMean/reduction_indices", "op": "Const", "attr": {"dtype": {"type": "DT_INT32"}, "value": {"tensor": {"dtype": "DT_INT32", "tensorShape": {}}}}}, {"name": "unknown_108", "op": "Const", "attr": {"dtype": {"type": "DT_FLOAT"}, "value": {"tensor": {"dtype": "DT_FLOAT", "tensorShape": {"dim": [{"size": "120"}]}}}}}, {"name": "unknown_109", "op": "Const", "attr": {"value": {"tensor": {"dtype": "DT_FLOAT", "tensorShape": {"dim": [{"size": "120"}, {"size": "240"}]}}}, "dtype": {"type": "DT_FLOAT"}}}, {"name": "unknown_111", "op": "Const", "attr": {"value": {"tensor": {"dtype": "DT_FLOAT", "tensorShape": {"dim": [{"size": "240"}, {"size": "120"}]}}}, "dtype": {"type": "DT_FLOAT"}}}, {"name": "unknown_106", "op": "Const", "attr": {"dtype": {"type": "DT_FLOAT"}, "value": {"tensor": {"dtype": "DT_FLOAT", "tensorShape": {"dim": [{"size": "120"}]}}}}}, {"name": "unknown_100", "op": "Const", "attr": {"value": {"tensor": {"dtype": "DT_FLOAT", "tensorShape": {"dim": [{"size": "120"}]}}}, "dtype": {"type": "DT_FLOAT"}}}, {"name": "unknown_99", "op": "Const", "attr": {"dtype": {"type": "DT_FLOAT"}, "value": {"tensor": {"dtype": "DT_FLOAT", "tensorShape": {"dim": [{"size": "120"}, {"size": "120"}]}}}}}, {"name": "StatefulPartitionedCall/Cast_87", "op": "Const", "attr": {"dtype": {"type": "DT_INT64"}, "value": {"tensor": {"dtype": "DT_INT64", "tensorShape": {"dim": [{"size": "1"}]}}}}}, {"name": "StatefulPartitionedCall/zeros_23", "op": "Const", "attr": {"dtype": {"type": "DT_INT64"}, "value": {"tensor": {"dtype": "DT_INT64", "tensorShape": {}}}}}, {"name": "StatefulPartitionedCall/onnx_tf_prefix_/mobilevit/encoder/layer.3/transformer/layer.1/attention/attention/Transpose_1/perm", "op": "Const", "attr": {"dtype": {"type": "DT_INT32"}, "value": {"tensor": {"dtype": "DT_INT32", "tensorShape": {"dim": [{"size": "4"}]}}}}}, {"name": "unknown_102", "op": "Const", "attr": {"dtype": {"type": "DT_FLOAT"}, "value": {"tensor": {"dtype": "DT_FLOAT", "tensorShape": {"dim": [{"size": "120"}]}}}}}, {"name": "unknown_101", "op": "Const", "attr": {"dtype": {"type": "DT_FLOAT"}, "value": {"tensor": {"dtype": "DT_FLOAT", "tensorShape": {"dim": [{"size": "120"}, {"size": "120"}]}}}}}, {"name": "StatefulPartitionedCall/Cast_77", "op": "Const", "attr": {"value": {"tensor": {"dtype": "DT_INT64", "tensorShape": {"dim": [{"size": "1"}]}}}, "dtype": {"type": "DT_INT64"}}}, {"name": "StatefulPartitionedCall/zeros_21", "op": "Const", "attr": {"dtype": {"type": "DT_INT64"}, "value": {"tensor": {"dtype": "DT_INT64", "tensorShape": {}}}}}, {"name": "StatefulPartitionedCall/onnx_tf_prefix_/mobilevit/encoder/layer.3/transformer/layer.1/attention/attention/Transpose_2/perm", "op": "Const", "attr": {"value": {"tensor": {"dtype": "DT_INT32", "tensorShape": {"dim": [{"size": "4"}]}}}, "dtype": {"type": "DT_INT32"}}}, {"name": "ConstantFolding/StatefulPartitionedCall/onnx_tf_prefix_/mobilevit/encoder/layer.3/transformer/layer.1/attention/attention/Div_recip", "op": "Const", "attr": {"value": {"tensor": {"dtype": "DT_FLOAT", "tensorShape": {}}}, "dtype": {"type": "DT_FLOAT"}}}, {"name": "unknown_104", "op": "Const", "attr": {"value": {"tensor": {"dtype": "DT_FLOAT", "tensorShape": {"dim": [{"size": "120"}]}}}, "dtype": {"type": "DT_FLOAT"}}}, {"name": "unknown_97", "op": "Const", "attr": {"dtype": {"type": "DT_FLOAT"}, "value": {"tensor": {"dtype": "DT_FLOAT", "tensorShape": {"dim": [{"size": "120"}]}}}}}, {"name": "StatefulPartitionedCall/onnx_tf_prefix_/mobilevit/encoder/layer.3/transformer/layer.1/layernorm_before/ReduceMean_1/reduction_indices", "op": "Const", "attr": {"value": {"tensor": {"dtype": "DT_INT32", "tensorShape": {}}}, "dtype": {"type": "DT_INT32"}}}, {"name": "StatefulPartitionedCall/onnx_tf_prefix_/mobilevit/encoder/layer.3/transformer/layer.1/layernorm_before/Constant_1", "op": "Const", "attr": {"dtype": {"type": "DT_FLOAT"}, "value": {"tensor": {"dtype": "DT_FLOAT", "tensorShape": {}}}}}, {"name": "StatefulPartitionedCall/onnx_tf_prefix_/mobilevit/encoder/layer.3/transformer/layer.1/layernorm_before/ReduceMean/reduction_indices", "op": "Const", "attr": {"dtype": {"type": "DT_INT32"}, "value": {"tensor": {"dtype": "DT_INT32", "tensorShape": {}}}}}, {"name": "unknown_98", "op": "Const", "attr": {"value": {"tensor": {"dtype": "DT_FLOAT", "tensorShape": {"dim": [{"size": "120"}]}}}, "dtype": {"type": "DT_FLOAT"}}}, {"name": "unknown_103", "op": "Const", "attr": {"dtype": {"type": "DT_FLOAT"}, "value": {"tensor": {"dtype": "DT_FLOAT", "tensorShape": {"dim": [{"size": "120"}, {"size": "120"}]}}}}}, {"name": "StatefulPartitionedCall/Cast_82", "op": "Const", "attr": {"dtype": {"type": "DT_INT64"}, "value": {"tensor": {"dtype": "DT_INT64", "tensorShape": {"dim": [{"size": "1"}]}}}}}, {"name": "StatefulPartitionedCall/zeros_22", "op": "Const", "attr": {"value": {"tensor": {"dtype": "DT_INT64", "tensorShape": {}}}, "dtype": {"type": "DT_INT64"}}}, {"name": "StatefulPartitionedCall/onnx_tf_prefix_/mobilevit/encoder/layer.3/transformer/layer.1/attention/attention/Transpose/perm", "op": "Const", "attr": {"value": {"tensor": {"dtype": "DT_INT32", "tensorShape": {"dim": [{"size": "4"}]}}}, "dtype": {"type": "DT_INT32"}}}, {"name": "StatefulPartitionedCall/onnx_tf_prefix_/mobilevit/encoder/layer.3/transformer/layer.1/attention/attention/Transpose_3/perm", "op": "Const", "attr": {"value": {"tensor": {"dtype": "DT_INT32", "tensorShape": {"dim": [{"size": "4"}]}}}, "dtype": {"type": "DT_INT32"}}}, {"name": "StatefulPartitionedCall/Cast_92", "op": "Const", "attr": {"value": {"tensor": {"dtype": "DT_INT64", "tensorShape": {"dim": [{"size": "1"}]}}}, "dtype": {"type": "DT_INT64"}}}, {"name": "StatefulPartitionedCall/zeros_24", "op": "Const", "attr": {"dtype": {"type": "DT_INT64"}, "value": {"tensor": {"dtype": "DT_INT64", "tensorShape": {}}}}}, {"name": "unknown_105", "op": "Const", "attr": {"dtype": {"type": "DT_FLOAT"}, "value": {"tensor": {"dtype": "DT_FLOAT", "tensorShape": {"dim": [{"size": "120"}, {"size": "120"}]}}}}}, {"name": "unknown_96", "op": "Const", "attr": {"dtype": {"type": "DT_FLOAT"}, "value": {"tensor": {"dtype": "DT_FLOAT", "tensorShape": {"dim": [{"size": "120"}]}}}}}, {"name": "unknown_94", "op": "Const", "attr": {"dtype": {"type": "DT_FLOAT"}, "value": {"tensor": {"dtype": "DT_FLOAT", "tensorShape": {"dim": [{"size": "240"}]}}}}}, {"name": "unknown_91", "op": "Const", "attr": {"value": {"tensor": {"dtype": "DT_FLOAT", "tensorShape": {"dim": [{"size": "120"}]}}}, "dtype": {"type": "DT_FLOAT"}}}, {"name": "StatefulPartitionedCall/onnx_tf_prefix_/mobilevit/encoder/layer.3/transformer/layer.0/layernorm_after/ReduceMean_1/reduction_indices", "op": "Const", "attr": {"value": {"tensor": {"dtype": "DT_INT32", "tensorShape": {}}}, "dtype": {"type": "DT_INT32"}}}, {"name": "StatefulPartitionedCall/onnx_tf_prefix_/mobilevit/encoder/layer.3/transformer/layer.0/layernorm_after/Constant_1", "op": "Const", "attr": {"value": {"tensor": {"dtype": "DT_FLOAT", "tensorShape": {}}}, "dtype": {"type": "DT_FLOAT"}}}, {"name": "StatefulPartitionedCall/onnx_tf_prefix_/mobilevit/encoder/layer.3/transformer/layer.0/layernorm_after/ReduceMean/reduction_indices", "op": "Const", "attr": {"dtype": {"type": "DT_INT32"}, "value": {"tensor": {"dtype": "DT_INT32", "tensorShape": {}}}}}, {"name": "unknown_92", "op": "Const", "attr": {"dtype": {"type": "DT_FLOAT"}, "value": {"tensor": {"dtype": "DT_FLOAT", "tensorShape": {"dim": [{"size": "120"}]}}}}}, {"name": "unknown_93", "op": "Const", "attr": {"dtype": {"type": "DT_FLOAT"}, "value": {"tensor": {"dtype": "DT_FLOAT", "tensorShape": {"dim": [{"size": "120"}, {"size": "240"}]}}}}}, {"name": "unknown_95", "op": "Const", "attr": {"dtype": {"type": "DT_FLOAT"}, "value": {"tensor": {"dtype": "DT_FLOAT", "tensorShape": {"dim": [{"size": "240"}, {"size": "120"}]}}}}}, {"name": "unknown_90", "op": "Const", "attr": {"value": {"tensor": {"dtype": "DT_FLOAT", "tensorShape": {"dim": [{"size": "120"}]}}}, "dtype": {"type": "DT_FLOAT"}}}, {"name": "unknown_84", "op": "Const", "attr": {"value": {"tensor": {"dtype": "DT_FLOAT", "tensorShape": {"dim": [{"size": "120"}]}}}, "dtype": {"type": "DT_FLOAT"}}}, {"name": "unknown_83", "op": "Const", "attr": {"value": {"tensor": {"dtype": "DT_FLOAT", "tensorShape": {"dim": [{"size": "120"}, {"size": "120"}]}}}, "dtype": {"type": "DT_FLOAT"}}}, {"name": "StatefulPartitionedCall/Cast_67", "op": "Const", "attr": {"dtype": {"type": "DT_INT64"}, "value": {"tensor": {"dtype": "DT_INT64", "tensorShape": {"dim": [{"size": "1"}]}}}}}, {"name": "StatefulPartitionedCall/zeros_19", "op": "Const", "attr": {"dtype": {"type": "DT_INT64"}, "value": {"tensor": {"dtype": "DT_INT64", "tensorShape": {}}}}}, {"name": "StatefulPartitionedCall/onnx_tf_prefix_/mobilevit/encoder/layer.3/transformer/layer.0/attention/attention/Transpose_1/perm", "op": "Const", "attr": {"value": {"tensor": {"dtype": "DT_INT32", "tensorShape": {"dim": [{"size": "4"}]}}}, "dtype": {"type": "DT_INT32"}}}, {"name": "unknown_86", "op": "Const", "attr": {"value": {"tensor": {"dtype": "DT_FLOAT", "tensorShape": {"dim": [{"size": "120"}]}}}, "dtype": {"type": "DT_FLOAT"}}}, {"name": "unknown_85", "op": "Const", "attr": {"dtype": {"type": "DT_FLOAT"}, "value": {"tensor": {"dtype": "DT_FLOAT", "tensorShape": {"dim": [{"size": "120"}, {"size": "120"}]}}}}}, {"name": "StatefulPartitionedCall/Cast_57", "op": "Const", "attr": {"value": {"tensor": {"dtype": "DT_INT64", "tensorShape": {"dim": [{"size": "1"}]}}}, "dtype": {"type": "DT_INT64"}}}, {"name": "StatefulPartitionedCall/zeros_17", "op": "Const", "attr": {"value": {"tensor": {"dtype": "DT_INT64", "tensorShape": {}}}, "dtype": {"type": "DT_INT64"}}}, {"name": "StatefulPartitionedCall/onnx_tf_prefix_/mobilevit/encoder/layer.3/transformer/layer.0/attention/attention/Transpose_2/perm", "op": "Const", "attr": {"dtype": {"type": "DT_INT32"}, "value": {"tensor": {"dtype": "DT_INT32", "tensorShape": {"dim": [{"size": "4"}]}}}}}, {"name": "ConstantFolding/StatefulPartitionedCall/onnx_tf_prefix_/mobilevit/encoder/layer.3/transformer/layer.0/attention/attention/Div_recip", "op": "Const", "attr": {"dtype": {"type": "DT_FLOAT"}, "value": {"tensor": {"dtype": "DT_FLOAT", "tensorShape": {}}}}}, {"name": "unknown_88", "op": "Const", "attr": {"dtype": {"type": "DT_FLOAT"}, "value": {"tensor": {"dtype": "DT_FLOAT", "tensorShape": {"dim": [{"size": "120"}]}}}}}, {"name": "unknown_81", "op": "Const", "attr": {"dtype": {"type": "DT_FLOAT"}, "value": {"tensor": {"dtype": "DT_FLOAT", "tensorShape": {"dim": [{"size": "120"}]}}}}}, {"name": "StatefulPartitionedCall/onnx_tf_prefix_/mobilevit/encoder/layer.3/transformer/layer.0/layernorm_before/ReduceMean/reduction_indices", "op": "Const", "attr": {"value": {"tensor": {"dtype": "DT_INT32", "tensorShape": {}}}, "dtype": {"type": "DT_INT32"}}}, {"name": "StatefulPartitionedCall/onnx_tf_prefix_/mobilevit/encoder/layer.3/transformer/layer.0/layernorm_before/ReduceMean_1/reduction_indices", "op": "Const", "attr": {"dtype": {"type": "DT_INT32"}, "value": {"tensor": {"dtype": "DT_INT32", "tensorShape": {}}}}}, {"name": "StatefulPartitionedCall/onnx_tf_prefix_/mobilevit/encoder/layer.3/transformer/layer.0/layernorm_before/Constant_1", "op": "Const", "attr": {"dtype": {"type": "DT_FLOAT"}, "value": {"tensor": {"dtype": "DT_FLOAT", "tensorShape": {}}}}}, {"name": "unknown_82", "op": "Const", "attr": {"dtype": {"type": "DT_FLOAT"}, "value": {"tensor": {"dtype": "DT_FLOAT", "tensorShape": {"dim": [{"size": "120"}]}}}}}, {"name": "unknown_87", "op": "Const", "attr": {"dtype": {"type": "DT_FLOAT"}, "value": {"tensor": {"dtype": "DT_FLOAT", "tensorShape": {"dim": [{"size": "120"}, {"size": "120"}]}}}}}, {"name": "StatefulPartitionedCall/Cast_62", "op": "Const", "attr": {"value": {"tensor": {"dtype": "DT_INT64", "tensorShape": {"dim": [{"size": "1"}]}}}, "dtype": {"type": "DT_INT64"}}}, {"name": "StatefulPartitionedCall/zeros_18", "op": "Const", "attr": {"dtype": {"type": "DT_INT64"}, "value": {"tensor": {"dtype": "DT_INT64", "tensorShape": {}}}}}, {"name": "StatefulPartitionedCall/onnx_tf_prefix_/mobilevit/encoder/layer.3/transformer/layer.0/attention/attention/Transpose/perm", "op": "Const", "attr": {"dtype": {"type": "DT_INT32"}, "value": {"tensor": {"dtype": "DT_INT32", "tensorShape": {"dim": [{"size": "4"}]}}}}}, {"name": "StatefulPartitionedCall/onnx_tf_prefix_/mobilevit/encoder/layer.3/transformer/layer.0/attention/attention/Transpose_3/perm", "op": "Const", "attr": {"dtype": {"type": "DT_INT32"}, "value": {"tensor": {"dtype": "DT_INT32", "tensorShape": {"dim": [{"size": "4"}]}}}}}, {"name": "StatefulPartitionedCall/Cast_72", "op": "Const", "attr": {"dtype": {"type": "DT_INT64"}, "value": {"tensor": {"dtype": "DT_INT64", "tensorShape": {"dim": [{"size": "1"}]}}}}}, {"name": "StatefulPartitionedCall/zeros_20", "op": "Const", "attr": {"value": {"tensor": {"dtype": "DT_INT64", "tensorShape": {}}}, "dtype": {"type": "DT_INT64"}}}, {"name": "unknown_89", "op": "Const", "attr": {"value": {"tensor": {"dtype": "DT_FLOAT", "tensorShape": {"dim": [{"size": "120"}, {"size": "120"}]}}}, "dtype": {"type": "DT_FLOAT"}}}, {"name": "unknown_66", "op": "Const", "attr": {"dtype": {"type": "DT_FLOAT"}, "value": {"tensor": {"dtype": "DT_FLOAT", "tensorShape": {"dim": [{"size": "96"}]}}}}}, {"name": "StatefulPartitionedCall/onnx_tf_prefix_/mobilevit/encoder/layer.2/layernorm/ReduceMean_1/reduction_indices", "op": "Const", "attr": {"dtype": {"type": "DT_INT32"}, "value": {"tensor": {"dtype": "DT_INT32", "tensorShape": {}}}}}, {"name": "StatefulPartitionedCall/onnx_tf_prefix_/mobilevit/encoder/layer.2/layernorm/Constant_1", "op": "Const", "attr": {"value": {"tensor": {"dtype": "DT_FLOAT", "tensorShape": {}}}, "dtype": {"type": "DT_FLOAT"}}}, {"name": "unknown_65", "op": "Const", "attr": {"dtype": {"type": "DT_FLOAT"}, "value": {"tensor": {"dtype": "DT_FLOAT", "tensorShape": {"dim": [{"size": "96"}]}}}}}, {"name": "unknown_63", "op": "Const", "attr": {"dtype": {"type": "DT_FLOAT"}, "value": {"tensor": {"dtype": "DT_FLOAT", "tensorShape": {"dim": [{"size": "192"}]}}}}}, {"name": "unknown_60", "op": "Const", "attr": {"dtype": {"type": "DT_FLOAT"}, "value": {"tensor": {"dtype": "DT_FLOAT", "tensorShape": {"dim": [{"size": "96"}]}}}}}, {"name": "StatefulPartitionedCall/onnx_tf_prefix_/mobilevit/encoder/layer.2/transformer/layer.1/layernorm_after/ReduceMean_1/reduction_indices", "op": "Const", "attr": {"dtype": {"type": "DT_INT32"}, "value": {"tensor": {"dtype": "DT_INT32", "tensorShape": {}}}}}, {"name": "StatefulPartitionedCall/onnx_tf_prefix_/mobilevit/encoder/layer.2/transformer/layer.1/layernorm_after/Constant_1", "op": "Const", "attr": {"value": {"tensor": {"dtype": "DT_FLOAT", "tensorShape": {}}}, "dtype": {"type": "DT_FLOAT"}}}, {"name": "StatefulPartitionedCall/onnx_tf_prefix_/mobilevit/encoder/layer.2/transformer/layer.1/layernorm_after/ReduceMean/reduction_indices", "op": "Const", "attr": {"dtype": {"type": "DT_INT32"}, "value": {"tensor": {"dtype": "DT_INT32", "tensorShape": {}}}}}, {"name": "unknown_61", "op": "Const", "attr": {"value": {"tensor": {"dtype": "DT_FLOAT", "tensorShape": {"dim": [{"size": "96"}]}}}, "dtype": {"type": "DT_FLOAT"}}}, {"name": "unknown_62", "op": "Const", "attr": {"dtype": {"type": "DT_FLOAT"}, "value": {"tensor": {"dtype": "DT_FLOAT", "tensorShape": {"dim": [{"size": "96"}, {"size": "192"}]}}}}}, {"name": "unknown_64", "op": "Const", "attr": {"dtype": {"type": "DT_FLOAT"}, "value": {"tensor": {"dtype": "DT_FLOAT", "tensorShape": {"dim": [{"size": "192"}, {"size": "96"}]}}}}}, {"name": "unknown_59", "op": "Const", "attr": {"dtype": {"type": "DT_FLOAT"}, "value": {"tensor": {"dtype": "DT_FLOAT", "tensorShape": {"dim": [{"size": "96"}]}}}}}, {"name": "unknown_53", "op": "Const", "attr": {"dtype": {"type": "DT_FLOAT"}, "value": {"tensor": {"dtype": "DT_FLOAT", "tensorShape": {"dim": [{"size": "96"}]}}}}}, {"name": "unknown_52", "op": "Const", "attr": {"dtype": {"type": "DT_FLOAT"}, "value": {"tensor": {"dtype": "DT_FLOAT", "tensorShape": {"dim": [{"size": "96"}, {"size": "96"}]}}}}}, {"name": "StatefulPartitionedCall/Cast_39", "op": "Const", "attr": {"dtype": {"type": "DT_INT64"}, "value": {"tensor": {"dtype": "DT_INT64", "tensorShape": {"dim": [{"size": "1"}]}}}}}, {"name": "StatefulPartitionedCall/zeros_9", "op": "Const", "attr": {"value": {"tensor": {"dtype": "DT_INT64", "tensorShape": {}}}, "dtype": {"type": "DT_INT64"}}}, {"name": "StatefulPartitionedCall/onnx_tf_prefix_/mobilevit/encoder/layer.2/transformer/layer.1/attention/attention/Transpose_1/perm", "op": "Const", "attr": {"value": {"tensor": {"dtype": "DT_INT32", "tensorShape": {"dim": [{"size": "4"}]}}}, "dtype": {"type": "DT_INT32"}}}, {"name": "unknown_55", "op": "Const", "attr": {"value": {"tensor": {"dtype": "DT_FLOAT", "tensorShape": {"dim": [{"size": "96"}]}}}, "dtype": {"type": "DT_FLOAT"}}}, {"name": "unknown_54", "op": "Const", "attr": {"dtype": {"type": "DT_FLOAT"}, "value": {"tensor": {"dtype": "DT_FLOAT", "tensorShape": {"dim": [{"size": "96"}, {"size": "96"}]}}}}}, {"name": "StatefulPartitionedCall/Cast_29", "op": "Const", "attr": {"dtype": {"type": "DT_INT64"}, "value": {"tensor": {"dtype": "DT_INT64", "tensorShape": {"dim": [{"size": "1"}]}}}}}, {"name": "StatefulPartitionedCall/zeros_7", "op": "Const", "attr": {"value": {"tensor": {"dtype": "DT_INT64", "tensorShape": {}}}, "dtype": {"type": "DT_INT64"}}}, {"name": "StatefulPartitionedCall/onnx_tf_prefix_/mobilevit/encoder/layer.2/transformer/layer.1/attention/attention/Transpose_2/perm", "op": "Const", "attr": {"dtype": {"type": "DT_INT32"}, "value": {"tensor": {"dtype": "DT_INT32", "tensorShape": {"dim": [{"size": "4"}]}}}}}, {"name": "ConstantFolding/StatefulPartitionedCall/onnx_tf_prefix_/mobilevit/encoder/layer.2/transformer/layer.1/attention/attention/Div_recip", "op": "Const", "attr": {"dtype": {"type": "DT_FLOAT"}, "value": {"tensor": {"dtype": "DT_FLOAT", "tensorShape": {}}}}}, {"name": "unknown_57", "op": "Const", "attr": {"dtype": {"type": "DT_FLOAT"}, "value": {"tensor": {"dtype": "DT_FLOAT", "tensorShape": {"dim": [{"size": "96"}]}}}}}, {"name": "unknown_50", "op": "Const", "attr": {"value": {"tensor": {"dtype": "DT_FLOAT", "tensorShape": {"dim": [{"size": "96"}]}}}, "dtype": {"type": "DT_FLOAT"}}}, {"name": "StatefulPartitionedCall/onnx_tf_prefix_/mobilevit/encoder/layer.2/transformer/layer.1/layernorm_before/ReduceMean_1/reduction_indices", "op": "Const", "attr": {"value": {"tensor": {"dtype": "DT_INT32", "tensorShape": {}}}, "dtype": {"type": "DT_INT32"}}}, {"name": "StatefulPartitionedCall/onnx_tf_prefix_/mobilevit/encoder/layer.2/transformer/layer.1/layernorm_before/Constant_1", "op": "Const", "attr": {"dtype": {"type": "DT_FLOAT"}, "value": {"tensor": {"dtype": "DT_FLOAT", "tensorShape": {}}}}}, {"name": "StatefulPartitionedCall/onnx_tf_prefix_/mobilevit/encoder/layer.2/transformer/layer.1/layernorm_before/ReduceMean/reduction_indices", "op": "Const", "attr": {"value": {"tensor": {"dtype": "DT_INT32", "tensorShape": {}}}, "dtype": {"type": "DT_INT32"}}}, {"name": "unknown_51", "op": "Const", "attr": {"value": {"tensor": {"dtype": "DT_FLOAT", "tensorShape": {"dim": [{"size": "96"}]}}}, "dtype": {"type": "DT_FLOAT"}}}, {"name": "unknown_56", "op": "Const", "attr": {"value": {"tensor": {"dtype": "DT_FLOAT", "tensorShape": {"dim": [{"size": "96"}, {"size": "96"}]}}}, "dtype": {"type": "DT_FLOAT"}}}, {"name": "StatefulPartitionedCall/Cast_34", "op": "Const", "attr": {"dtype": {"type": "DT_INT64"}, "value": {"tensor": {"dtype": "DT_INT64", "tensorShape": {"dim": [{"size": "1"}]}}}}}, {"name": "StatefulPartitionedCall/zeros_8", "op": "Const", "attr": {"value": {"tensor": {"dtype": "DT_INT64", "tensorShape": {}}}, "dtype": {"type": "DT_INT64"}}}, {"name": "StatefulPartitionedCall/onnx_tf_prefix_/mobilevit/encoder/layer.2/transformer/layer.1/attention/attention/Transpose/perm", "op": "Const", "attr": {"dtype": {"type": "DT_INT32"}, "value": {"tensor": {"dtype": "DT_INT32", "tensorShape": {"dim": [{"size": "4"}]}}}}}, {"name": "StatefulPartitionedCall/onnx_tf_prefix_/mobilevit/encoder/layer.2/transformer/layer.1/attention/attention/Transpose_3/perm", "op": "Const", "attr": {"dtype": {"type": "DT_INT32"}, "value": {"tensor": {"dtype": "DT_INT32", "tensorShape": {"dim": [{"size": "4"}]}}}}}, {"name": "StatefulPartitionedCall/Cast_44", "op": "Const", "attr": {"dtype": {"type": "DT_INT64"}, "value": {"tensor": {"dtype": "DT_INT64", "tensorShape": {"dim": [{"size": "1"}]}}}}}, {"name": "StatefulPartitionedCall/zeros_10", "op": "Const", "attr": {"dtype": {"type": "DT_INT64"}, "value": {"tensor": {"dtype": "DT_INT64", "tensorShape": {}}}}}, {"name": "unknown_58", "op": "Const", "attr": {"dtype": {"type": "DT_FLOAT"}, "value": {"tensor": {"dtype": "DT_FLOAT", "tensorShape": {"dim": [{"size": "96"}, {"size": "96"}]}}}}}, {"name": "unknown_49", "op": "Const", "attr": {"dtype": {"type": "DT_FLOAT"}, "value": {"tensor": {"dtype": "DT_FLOAT", "tensorShape": {"dim": [{"size": "96"}]}}}}}, {"name": "unknown_47", "op": "Const", "attr": {"dtype": {"type": "DT_FLOAT"}, "value": {"tensor": {"dtype": "DT_FLOAT", "tensorShape": {"dim": [{"size": "192"}]}}}}}, {"name": "unknown_44", "op": "Const", "attr": {"dtype": {"type": "DT_FLOAT"}, "value": {"tensor": {"dtype": "DT_FLOAT", "tensorShape": {"dim": [{"size": "96"}]}}}}}, {"name": "StatefulPartitionedCall/onnx_tf_prefix_/mobilevit/encoder/layer.2/transformer/layer.0/layernorm_after/ReduceMean_1/reduction_indices", "op": "Const", "attr": {"value": {"tensor": {"dtype": "DT_INT32", "tensorShape": {}}}, "dtype": {"type": "DT_INT32"}}}, {"name": "StatefulPartitionedCall/onnx_tf_prefix_/mobilevit/encoder/layer.2/transformer/layer.0/layernorm_after/Constant_1", "op": "Const", "attr": {"dtype": {"type": "DT_FLOAT"}, "value": {"tensor": {"dtype": "DT_FLOAT", "tensorShape": {}}}}}, {"name": "StatefulPartitionedCall/onnx_tf_prefix_/mobilevit/encoder/layer.2/transformer/layer.0/layernorm_after/ReduceMean/reduction_indices", "op": "Const", "attr": {"dtype": {"type": "DT_INT32"}, "value": {"tensor": {"dtype": "DT_INT32", "tensorShape": {}}}}}, {"name": "unknown_45", "op": "Const", "attr": {"dtype": {"type": "DT_FLOAT"}, "value": {"tensor": {"dtype": "DT_FLOAT", "tensorShape": {"dim": [{"size": "96"}]}}}}}, {"name": "unknown_46", "op": "Const", "attr": {"value": {"tensor": {"dtype": "DT_FLOAT", "tensorShape": {"dim": [{"size": "96"}, {"size": "192"}]}}}, "dtype": {"type": "DT_FLOAT"}}}, {"name": "unknown_48", "op": "Const", "attr": {"dtype": {"type": "DT_FLOAT"}, "value": {"tensor": {"dtype": "DT_FLOAT", "tensorShape": {"dim": [{"size": "192"}, {"size": "96"}]}}}}}, {"name": "unknown_43", "op": "Const", "attr": {"dtype": {"type": "DT_FLOAT"}, "value": {"tensor": {"dtype": "DT_FLOAT", "tensorShape": {"dim": [{"size": "96"}]}}}}}, {"name": "unknown_37", "op": "Const", "attr": {"dtype": {"type": "DT_FLOAT"}, "value": {"tensor": {"dtype": "DT_FLOAT", "tensorShape": {"dim": [{"size": "96"}]}}}}}, {"name": "unknown_36", "op": "Const", "attr": {"dtype": {"type": "DT_FLOAT"}, "value": {"tensor": {"dtype": "DT_FLOAT", "tensorShape": {"dim": [{"size": "96"}, {"size": "96"}]}}}}}, {"name": "StatefulPartitionedCall/Cast_19", "op": "Const", "attr": {"dtype": {"type": "DT_INT64"}, "value": {"tensor": {"dtype": "DT_INT64", "tensorShape": {"dim": [{"size": "1"}]}}}}}, {"name": "StatefulPartitionedCall/zeros_5", "op": "Const", "attr": {"value": {"tensor": {"dtype": "DT_INT64", "tensorShape": {}}}, "dtype": {"type": "DT_INT64"}}}, {"name": "StatefulPartitionedCall/onnx_tf_prefix_/mobilevit/encoder/layer.2/transformer/layer.0/attention/attention/Transpose_1/perm", "op": "Const", "attr": {"dtype": {"type": "DT_INT32"}, "value": {"tensor": {"dtype": "DT_INT32", "tensorShape": {"dim": [{"size": "4"}]}}}}}, {"name": "unknown_39", "op": "Const", "attr": {"dtype": {"type": "DT_FLOAT"}, "value": {"tensor": {"dtype": "DT_FLOAT", "tensorShape": {"dim": [{"size": "96"}]}}}}}, {"name": "unknown_38", "op": "Const", "attr": {"value": {"tensor": {"dtype": "DT_FLOAT", "tensorShape": {"dim": [{"size": "96"}, {"size": "96"}]}}}, "dtype": {"type": "DT_FLOAT"}}}, {"name": "StatefulPartitionedCall/Cast_9", "op": "Const", "attr": {"dtype": {"type": "DT_INT64"}, "value": {"tensor": {"dtype": "DT_INT64", "tensorShape": {"dim": [{"size": "1"}]}}}}}, {"name": "Func/StatefulPartitionedCall/assert_equal_1/Assert/AssertGuard/then/_222/output/_946", "op": "Const", "attr": {"value": {"tensor": {"dtype": "DT_BOOL", "tensorShape": {}}}, "dtype": {"type": "DT_BOOL"}}}, {"name": "StatefulPartitionedCall/zeros_3", "op": "Const", "attr": {"dtype": {"type": "DT_INT64"}, "value": {"tensor": {"dtype": "DT_INT64", "tensorShape": {}}}}}, {"name": "StatefulPartitionedCall/onnx_tf_prefix_/mobilevit/encoder/layer.2/transformer/layer.0/attention/attention/Transpose_2/perm", "op": "Const", "attr": {"value": {"tensor": {"dtype": "DT_INT32", "tensorShape": {"dim": [{"size": "4"}]}}}, "dtype": {"type": "DT_INT32"}}}, {"name": "ConstantFolding/StatefulPartitionedCall/onnx_tf_prefix_/mobilevit/encoder/layer.2/transformer/layer.0/attention/attention/Div_recip", "op": "Const", "attr": {"dtype": {"type": "DT_FLOAT"}, "value": {"tensor": {"dtype": "DT_FLOAT", "tensorShape": {}}}}}, {"name": "unknown_41", "op": "Const", "attr": {"value": {"tensor": {"dtype": "DT_FLOAT", "tensorShape": {"dim": [{"size": "96"}]}}}, "dtype": {"type": "DT_FLOAT"}}}, {"name": "unknown_34", "op": "Const", "attr": {"dtype": {"type": "DT_FLOAT"}, "value": {"tensor": {"dtype": "DT_FLOAT", "tensorShape": {"dim": [{"size": "96"}]}}}}}, {"name": "StatefulPartitionedCall/onnx_tf_prefix_/mobilevit/encoder/layer.2/transformer/layer.0/layernorm_before/ReduceMean/reduction_indices", "op": "Const", "attr": {"dtype": {"type": "DT_INT32"}, "value": {"tensor": {"dtype": "DT_INT32", "tensorShape": {}}}}}, {"name": "StatefulPartitionedCall/onnx_tf_prefix_/mobilevit/encoder/layer.2/transformer/layer.0/layernorm_before/ReduceMean_1/reduction_indices", "op": "Const", "attr": {"dtype": {"type": "DT_INT32"}, "value": {"tensor": {"dtype": "DT_INT32", "tensorShape": {}}}}}, {"name": "StatefulPartitionedCall/onnx_tf_prefix_/mobilevit/encoder/layer.2/transformer/layer.0/layernorm_before/Constant_1", "op": "Const", "attr": {"dtype": {"type": "DT_FLOAT"}, "value": {"tensor": {"dtype": "DT_FLOAT", "tensorShape": {}}}}}, {"name": "unknown_35", "op": "Const", "attr": {"dtype": {"type": "DT_FLOAT"}, "value": {"tensor": {"dtype": "DT_FLOAT", "tensorShape": {"dim": [{"size": "96"}]}}}}}, {"name": "unknown_40", "op": "Const", "attr": {"value": {"tensor": {"dtype": "DT_FLOAT", "tensorShape": {"dim": [{"size": "96"}, {"size": "96"}]}}}, "dtype": {"type": "DT_FLOAT"}}}, {"name": "StatefulPartitionedCall/Cast_14", "op": "Const", "attr": {"dtype": {"type": "DT_INT64"}, "value": {"tensor": {"dtype": "DT_INT64", "tensorShape": {"dim": [{"size": "1"}]}}}}}, {"name": "StatefulPartitionedCall/zeros_4", "op": "Const", "attr": {"dtype": {"type": "DT_INT64"}, "value": {"tensor": {"dtype": "DT_INT64", "tensorShape": {}}}}}, {"name": "StatefulPartitionedCall/onnx_tf_prefix_/mobilevit/encoder/layer.2/transformer/layer.0/attention/attention/Transpose/perm", "op": "Const", "attr": {"value": {"tensor": {"dtype": "DT_INT32", "tensorShape": {"dim": [{"size": "4"}]}}}, "dtype": {"type": "DT_INT32"}}}, {"name": "StatefulPartitionedCall/onnx_tf_prefix_/mobilevit/encoder/layer.2/transformer/layer.0/attention/attention/Transpose_3/perm", "op": "Const", "attr": {"dtype": {"type": "DT_INT32"}, "value": {"tensor": {"dtype": "DT_INT32", "tensorShape": {"dim": [{"size": "4"}]}}}}}, {"name": "StatefulPartitionedCall/Cast_24", "op": "Const", "attr": {"value": {"tensor": {"dtype": "DT_INT64", "tensorShape": {"dim": [{"size": "1"}]}}}, "dtype": {"type": "DT_INT64"}}}, {"name": "StatefulPartitionedCall/zeros_6", "op": "Const", "attr": {"dtype": {"type": "DT_INT64"}, "value": {"tensor": {"dtype": "DT_INT64", "tensorShape": {}}}}}, {"name": "unknown_42", "op": "Const", "attr": {"value": {"tensor": {"dtype": "DT_FLOAT", "tensorShape": {"dim": [{"size": "96"}, {"size": "96"}]}}}, "dtype": {"type": "DT_FLOAT"}}}, {"name": "StatefulPartitionedCall/transpose_20/perm", "op": "Const", "attr": {"dtype": {"type": "DT_INT32"}, "value": {"tensor": {"dtype": "DT_INT32", "tensorShape": {"dim": [{"size": "4"}]}}}}}, {"name": "StatefulPartitionedCall/Const", "op": "Const", "attr": {"dtype": {"type": "DT_INT32"}, "value": {"tensor": {"dtype": "DT_INT32", "tensorShape": {"dim": [{"size": "4"}, {"size": "2"}]}}}}}, {"name": "StatefulPartitionedCall/transpose_1/perm", "op": "Const", "attr": {"dtype": {"type": "DT_INT32"}, "value": {"tensor": {"dtype": "DT_INT32", "tensorShape": {"dim": [{"size": "4"}]}}}}}, {"name": "StatefulPartitionedCall/split", "op": "Const", "attr": {"value": {"tensor": {"dtype": "DT_FLOAT", "tensorShape": {"dim": [{"size": "3"}, {"size": "3"}, {"size": "3"}, {"size": "16"}]}}}, "dtype": {"type": "DT_FLOAT"}}}, {"name": "unknown_0", "op": "Const", "attr": {"dtype": {"type": "DT_FLOAT"}, "value": {"tensor": {"dtype": "DT_FLOAT", "tensorShape": {"dim": [{"size": "16"}]}}}}}, {"name": "StatefulPartitionedCall/transpose_2/perm", "op": "Const", "attr": {"dtype": {"type": "DT_INT32"}, "value": {"tensor": {"dtype": "DT_INT32", "tensorShape": {"dim": [{"size": "4"}]}}}}}, {"name": "StatefulPartitionedCall/transpose_4/perm", "op": "Const", "attr": {"dtype": {"type": "DT_INT32"}, "value": {"tensor": {"dtype": "DT_INT32", "tensorShape": {"dim": [{"size": "4"}]}}}}}, {"name": "StatefulPartitionedCall/split_1", "op": "Const", "attr": {"value": {"tensor": {"dtype": "DT_FLOAT", "tensorShape": {"dim": [{"size": "1"}, {"size": "1"}, {"size": "16"}, {"size": "64"}]}}}, "dtype": {"type": "DT_FLOAT"}}}, {"name": "unknown_2", "op": "Const", "attr": {"dtype": {"type": "DT_FLOAT"}, "value": {"tensor": {"dtype": "DT_FLOAT", "tensorShape": {"dim": [{"size": "64"}]}}}}}, {"name": "StatefulPartitionedCall/transpose_5/perm", "op": "Const", "attr": {"dtype": {"type": "DT_INT32"}, "value": {"tensor": {"dtype": "DT_INT32", "tensorShape": {"dim": [{"size": "4"}]}}}}}, {"name": "StatefulPartitionedCall/Const_1", "op": "Const", "attr": {"dtype": {"type": "DT_INT32"}, "value": {"tensor": {"dtype": "DT_INT32", "tensorShape": {"dim": [{"size": "4"}, {"size": "2"}]}}}}}, {"name": "StatefulPartitionedCall/transpose_7/perm", "op": "Const", "attr": {"value": {"tensor": {"dtype": "DT_INT32", "tensorShape": {"dim": [{"size": "4"}]}}}, "dtype": {"type": "DT_INT32"}}}, {"name": "StatefulPartitionedCall/Reshape", "op": "Const", "attr": {"value": {"tensor": {"dtype": "DT_FLOAT", "tensorShape": {"dim": [{"size": "3"}, {"size": "3"}, {"size": "64"}, {"size": "1"}]}}}, "dtype": {"type": "DT_FLOAT"}}}, {"name": "unknown_4", "op": "Const", "attr": {"value": {"tensor": {"dtype": "DT_FLOAT", "tensorShape": {"dim": [{"size": "64"}]}}}, "dtype": {"type": "DT_FLOAT"}}}, {"name": "StatefulPartitionedCall/transpose_8/perm", "op": "Const", "attr": {"value": {"tensor": {"dtype": "DT_INT32", "tensorShape": {"dim": [{"size": "4"}]}}}, "dtype": {"type": "DT_INT32"}}}, {"name": "StatefulPartitionedCall/transpose_10/perm", "op": "Const", "attr": {"value": {"tensor": {"dtype": "DT_INT32", "tensorShape": {"dim": [{"size": "4"}]}}}, "dtype": {"type": "DT_INT32"}}}, {"name": "StatefulPartitionedCall/split_2", "op": "Const", "attr": {"dtype": {"type": "DT_FLOAT"}, "value": {"tensor": {"dtype": "DT_FLOAT", "tensorShape": {"dim": [{"size": "1"}, {"size": "1"}, {"size": "64"}, {"size": "32"}]}}}}}, {"name": "unknown_6", "op": "Const", "attr": {"dtype": {"type": "DT_FLOAT"}, "value": {"tensor": {"dtype": "DT_FLOAT", "tensorShape": {"dim": [{"size": "32"}]}}}}}, {"name": "StatefulPartitionedCall/split_3", "op": "Const", "attr": {"value": {"tensor": {"dtype": "DT_FLOAT", "tensorShape": {"dim": [{"size": "1"}, {"size": "1"}, {"size": "32"}, {"size": "128"}]}}}, "dtype": {"type": "DT_FLOAT"}}}, {"name": "unknown_8", "op": "Const", "attr": {"dtype": {"type": "DT_FLOAT"}, "value": {"tensor": {"dtype": "DT_FLOAT", "tensorShape": {"dim": [{"size": "128"}]}}}}}, {"name": "StatefulPartitionedCall/transpose_14/perm", "op": "Const", "attr": {"dtype": {"type": "DT_INT32"}, "value": {"tensor": {"dtype": "DT_INT32", "tensorShape": {"dim": [{"size": "4"}]}}}}}, {"name": "StatefulPartitionedCall/Const_2", "op": "Const", "attr": {"dtype": {"type": "DT_INT32"}, "value": {"tensor": {"dtype": "DT_INT32", "tensorShape": {"dim": [{"size": "4"}, {"size": "2"}]}}}}}, {"name": "StatefulPartitionedCall/transpose_16/perm", "op": "Const", "attr": {"value": {"tensor": {"dtype": "DT_INT32", "tensorShape": {"dim": [{"size": "4"}]}}}, "dtype": {"type": "DT_INT32"}}}, {"name": "StatefulPartitionedCall/Reshape_1", "op": "Const", "attr": {"value": {"tensor": {"dtype": "DT_FLOAT", "tensorShape": {"dim": [{"size": "3"}, {"size": "3"}, {"size": "128"}, {"size": "1"}]}}}, "dtype": {"type": "DT_FLOAT"}}}, {"name": "unknown_10", "op": "Const", "attr": {"value": {"tensor": {"dtype": "DT_FLOAT", "tensorShape": {"dim": [{"size": "128"}]}}}, "dtype": {"type": "DT_FLOAT"}}}, {"name": "StatefulPartitionedCall/transpose_17/perm", "op": "Const", "attr": {"value": {"tensor": {"dtype": "DT_INT32", "tensorShape": {"dim": [{"size": "4"}]}}}, "dtype": {"type": "DT_INT32"}}}, {"name": "StatefulPartitionedCall/transpose_19/perm", "op": "Const", "attr": {"value": {"tensor": {"dtype": "DT_INT32", "tensorShape": {"dim": [{"size": "4"}]}}}, "dtype": {"type": "DT_INT32"}}}, {"name": "StatefulPartitionedCall/split_4", "op": "Const", "attr": {"value": {"tensor": {"dtype": "DT_FLOAT", "tensorShape": {"dim": [{"size": "1"}, {"size": "1"}, {"size": "128"}, {"size": "48"}]}}}, "dtype": {"type": "DT_FLOAT"}}}, {"name": "unknown_12", "op": "Const", "attr": {"dtype": {"type": "DT_FLOAT"}, "value": {"tensor": {"dtype": "DT_FLOAT", "tensorShape": {"dim": [{"size": "48"}]}}}}}, {"name": "StatefulPartitionedCall/split_5", "op": "Const", "attr": {"value": {"tensor": {"dtype": "DT_FLOAT", "tensorShape": {"dim": [{"size": "1"}, {"size": "1"}, {"size": "48"}, {"size": "192"}]}}}, "dtype": {"type": "DT_FLOAT"}}}, {"name": "unknown_14", "op": "Const", "attr": {"dtype": {"type": "DT_FLOAT"}, "value": {"tensor": {"dtype": "DT_FLOAT", "tensorShape": {"dim": [{"size": "192"}]}}}}}, {"name": "StatefulPartitionedCall/transpose_23/perm", "op": "Const", "attr": {"value": {"tensor": {"dtype": "DT_INT32", "tensorShape": {"dim": [{"size": "4"}]}}}, "dtype": {"type": "DT_INT32"}}}, {"name": "StatefulPartitionedCall/Const_3", "op": "Const", "attr": {"value": {"tensor": {"dtype": "DT_INT32", "tensorShape": {"dim": [{"size": "4"}, {"size": "2"}]}}}, "dtype": {"type": "DT_INT32"}}}, {"name": "StatefulPartitionedCall/transpose_25/perm", "op": "Const", "attr": {"value": {"tensor": {"dtype": "DT_INT32", "tensorShape": {"dim": [{"size": "4"}]}}}, "dtype": {"type": "DT_INT32"}}}, {"name": "StatefulPartitionedCall/Reshape_2", "op": "Const", "attr": {"value": {"tensor": {"dtype": "DT_FLOAT", "tensorShape": {"dim": [{"size": "3"}, {"size": "3"}, {"size": "192"}, {"size": "1"}]}}}, "dtype": {"type": "DT_FLOAT"}}}, {"name": "unknown_16", "op": "Const", "attr": {"dtype": {"type": "DT_FLOAT"}, "value": {"tensor": {"dtype": "DT_FLOAT", "tensorShape": {"dim": [{"size": "192"}]}}}}}, {"name": "StatefulPartitionedCall/transpose_26/perm", "op": "Const", "attr": {"dtype": {"type": "DT_INT32"}, "value": {"tensor": {"dtype": "DT_INT32", "tensorShape": {"dim": [{"size": "4"}]}}}}}, {"name": "StatefulPartitionedCall/transpose_28/perm", "op": "Const", "attr": {"dtype": {"type": "DT_INT32"}, "value": {"tensor": {"dtype": "DT_INT32", "tensorShape": {"dim": [{"size": "4"}]}}}}}, {"name": "StatefulPartitionedCall/split_6", "op": "Const", "attr": {"value": {"tensor": {"dtype": "DT_FLOAT", "tensorShape": {"dim": [{"size": "1"}, {"size": "1"}, {"size": "192"}, {"size": "48"}]}}}, "dtype": {"type": "DT_FLOAT"}}}, {"name": "unknown_18", "op": "Const", "attr": {"dtype": {"type": "DT_FLOAT"}, "value": {"tensor": {"dtype": "DT_FLOAT", "tensorShape": {"dim": [{"size": "48"}]}}}}}, {"name": "StatefulPartitionedCall/transpose_29/perm", "op": "Const", "attr": {"dtype": {"type": "DT_INT32"}, "value": {"tensor": {"dtype": "DT_INT32", "tensorShape": {"dim": [{"size": "4"}]}}}}}, {"name": "StatefulPartitionedCall/transpose_31/perm", "op": "Const", "attr": {"dtype": {"type": "DT_INT32"}, "value": {"tensor": {"dtype": "DT_INT32", "tensorShape": {"dim": [{"size": "4"}]}}}}}, {"name": "StatefulPartitionedCall/split_7", "op": "Const", "attr": {"dtype": {"type": "DT_FLOAT"}, "value": {"tensor": {"dtype": "DT_FLOAT", "tensorShape": {"dim": [{"size": "1"}, {"size": "1"}, {"size": "48"}, {"size": "192"}]}}}}}, {"name": "unknown_20", "op": "Const", "attr": {"value": {"tensor": {"dtype": "DT_FLOAT", "tensorShape": {"dim": [{"size": "192"}]}}}, "dtype": {"type": "DT_FLOAT"}}}, {"name": "StatefulPartitionedCall/transpose_32/perm", "op": "Const", "attr": {"dtype": {"type": "DT_INT32"}, "value": {"tensor": {"dtype": "DT_INT32", "tensorShape": {"dim": [{"size": "4"}]}}}}}, {"name": "StatefulPartitionedCall/Const_4", "op": "Const", "attr": {"dtype": {"type": "DT_INT32"}, "value": {"tensor": {"dtype": "DT_INT32", "tensorShape": {"dim": [{"size": "4"}, {"size": "2"}]}}}}}, {"name": "StatefulPartitionedCall/transpose_34/perm", "op": "Const", "attr": {"value": {"tensor": {"dtype": "DT_INT32", "tensorShape": {"dim": [{"size": "4"}]}}}, "dtype": {"type": "DT_INT32"}}}, {"name": "StatefulPartitionedCall/Reshape_3", "op": "Const", "attr": {"dtype": {"type": "DT_FLOAT"}, "value": {"tensor": {"dtype": "DT_FLOAT", "tensorShape": {"dim": [{"size": "3"}, {"size": "3"}, {"size": "192"}, {"size": "1"}]}}}}}, {"name": "unknown_22", "op": "Const", "attr": {"value": {"tensor": {"dtype": "DT_FLOAT", "tensorShape": {"dim": [{"size": "192"}]}}}, "dtype": {"type": "DT_FLOAT"}}}, {"name": "StatefulPartitionedCall/transpose_35/perm", "op": "Const", "attr": {"dtype": {"type": "DT_INT32"}, "value": {"tensor": {"dtype": "DT_INT32", "tensorShape": {"dim": [{"size": "4"}]}}}}}, {"name": "StatefulPartitionedCall/transpose_37/perm", "op": "Const", "attr": {"value": {"tensor": {"dtype": "DT_INT32", "tensorShape": {"dim": [{"size": "4"}]}}}, "dtype": {"type": "DT_INT32"}}}, {"name": "StatefulPartitionedCall/split_8", "op": "Const", "attr": {"dtype": {"type": "DT_FLOAT"}, "value": {"tensor": {"dtype": "DT_FLOAT", "tensorShape": {"dim": [{"size": "1"}, {"size": "1"}, {"size": "192"}, {"size": "48"}]}}}}}, {"name": "unknown_24", "op": "Const", "attr": {"dtype": {"type": "DT_FLOAT"}, "value": {"tensor": {"dtype": "DT_FLOAT", "tensorShape": {"dim": [{"size": "48"}]}}}}}, {"name": "StatefulPartitionedCall/transpose_38/perm", "op": "Const", "attr": {"value": {"tensor": {"dtype": "DT_INT32", "tensorShape": {"dim": [{"size": "4"}]}}}, "dtype": {"type": "DT_INT32"}}}, {"name": "StatefulPartitionedCall/transpose_40/perm", "op": "Const", "attr": {"dtype": {"type": "DT_INT32"}, "value": {"tensor": {"dtype": "DT_INT32", "tensorShape": {"dim": [{"size": "4"}]}}}}}, {"name": "StatefulPartitionedCall/split_9", "op": "Const", "attr": {"value": {"tensor": {"dtype": "DT_FLOAT", "tensorShape": {"dim": [{"size": "1"}, {"size": "1"}, {"size": "48"}, {"size": "192"}]}}}, "dtype": {"type": "DT_FLOAT"}}}, {"name": "unknown_26", "op": "Const", "attr": {"value": {"tensor": {"dtype": "DT_FLOAT", "tensorShape": {"dim": [{"size": "192"}]}}}, "dtype": {"type": "DT_FLOAT"}}}, {"name": "StatefulPartitionedCall/transpose_41/perm", "op": "Const", "attr": {"dtype": {"type": "DT_INT32"}, "value": {"tensor": {"dtype": "DT_INT32", "tensorShape": {"dim": [{"size": "4"}]}}}}}, {"name": "StatefulPartitionedCall/Const_5", "op": "Const", "attr": {"value": {"tensor": {"dtype": "DT_INT32", "tensorShape": {"dim": [{"size": "4"}, {"size": "2"}]}}}, "dtype": {"type": "DT_INT32"}}}, {"name": "StatefulPartitionedCall/transpose_43/perm", "op": "Const", "attr": {"dtype": {"type": "DT_INT32"}, "value": {"tensor": {"dtype": "DT_INT32", "tensorShape": {"dim": [{"size": "4"}]}}}}}, {"name": "StatefulPartitionedCall/Reshape_4", "op": "Const", "attr": {"dtype": {"type": "DT_FLOAT"}, "value": {"tensor": {"dtype": "DT_FLOAT", "tensorShape": {"dim": [{"size": "3"}, {"size": "3"}, {"size": "192"}, {"size": "1"}]}}}}}, {"name": "unknown_28", "op": "Const", "attr": {"value": {"tensor": {"dtype": "DT_FLOAT", "tensorShape": {"dim": [{"size": "192"}]}}}, "dtype": {"type": "DT_FLOAT"}}}, {"name": "StatefulPartitionedCall/transpose_44/perm", "op": "Const", "attr": {"dtype": {"type": "DT_INT32"}, "value": {"tensor": {"dtype": "DT_INT32", "tensorShape": {"dim": [{"size": "4"}]}}}}}, {"name": "StatefulPartitionedCall/transpose_46/perm", "op": "Const", "attr": {"value": {"tensor": {"dtype": "DT_INT32", "tensorShape": {"dim": [{"size": "4"}]}}}, "dtype": {"type": "DT_INT32"}}}, {"name": "StatefulPartitionedCall/split_10", "op": "Const", "attr": {"value": {"tensor": {"dtype": "DT_FLOAT", "tensorShape": {"dim": [{"size": "1"}, {"size": "1"}, {"size": "192"}, {"size": "64"}]}}}, "dtype": {"type": "DT_FLOAT"}}}, {"name": "unknown_30", "op": "Const", "attr": {"dtype": {"type": "DT_FLOAT"}, "value": {"tensor": {"dtype": "DT_FLOAT", "tensorShape": {"dim": [{"size": "64"}]}}}}}, {"name": "StatefulPartitionedCall/transpose_47/perm", "op": "Const", "attr": {"value": {"tensor": {"dtype": "DT_INT32", "tensorShape": {"dim": [{"size": "4"}]}}}, "dtype": {"type": "DT_INT32"}}}, {"name": "StatefulPartitionedCall/Const_6", "op": "Const", "attr": {"value": {"tensor": {"dtype": "DT_INT32", "tensorShape": {"dim": [{"size": "4"}, {"size": "2"}]}}}, "dtype": {"type": "DT_INT32"}}}, {"name": "StatefulPartitionedCall/transpose_49/perm", "op": "Const", "attr": {"value": {"tensor": {"dtype": "DT_INT32", "tensorShape": {"dim": [{"size": "4"}]}}}, "dtype": {"type": "DT_INT32"}}}, {"name": "StatefulPartitionedCall/split_11", "op": "Const", "attr": {"value": {"tensor": {"dtype": "DT_FLOAT", "tensorShape": {"dim": [{"size": "3"}, {"size": "3"}, {"size": "64"}, {"size": "64"}]}}}, "dtype": {"type": "DT_FLOAT"}}}, {"name": "unknown_32", "op": "Const", "attr": {"value": {"tensor": {"dtype": "DT_FLOAT", "tensorShape": {"dim": [{"size": "64"}]}}}, "dtype": {"type": "DT_FLOAT"}}}, {"name": "StatefulPartitionedCall/transpose_50/perm", "op": "Const", "attr": {"dtype": {"type": "DT_INT32"}, "value": {"tensor": {"dtype": "DT_INT32", "tensorShape": {"dim": [{"size": "4"}]}}}}}, {"name": "StatefulPartitionedCall/transpose_52/perm", "op": "Const", "attr": {"value": {"tensor": {"dtype": "DT_INT32", "tensorShape": {"dim": [{"size": "4"}]}}}, "dtype": {"type": "DT_INT32"}}}, {"name": "StatefulPartitionedCall/split_12", "op": "Const", "attr": {"value": {"tensor": {"dtype": "DT_FLOAT", "tensorShape": {"dim": [{"size": "1"}, {"size": "1"}, {"size": "64"}, {"size": "96"}]}}}, "dtype": {"type": "DT_FLOAT"}}}, {"name": "StatefulPartitionedCall/transpose_53/perm", "op": "Const", "attr": {"value": {"tensor": {"dtype": "DT_INT32", "tensorShape": {"dim": [{"size": "4"}]}}}, "dtype": {"type": "DT_INT32"}}}, {"name": "StatefulPartitionedCall/onnx_tf_prefix_/mobilevit/encoder/layer.2/Concat", "op": "Const", "attr": {"dtype": {"type": "DT_INT64"}, "value": {"tensor": {"dtype": "DT_INT64", "tensorShape": {"dim": [{"size": "4"}]}}}}}, {"name": "StatefulPartitionedCall/Where", "op": "Const", "attr": {"dtype": {"type": "DT_INT64"}, "value": {"tensor": {"dtype": "DT_INT64", "tensorShape": {"dim": [{}, {"size": "1"}]}}}}}, {"name": "StatefulPartitionedCall/Cast_2", "op": "Const", "attr": {"value": {"tensor": {"dtype": "DT_INT64", "tensorShape": {"dim": [{"size": "1"}]}}}, "dtype": {"type": "DT_INT64"}}}, {"name": "StatefulPartitionedCall/GatherV2", "op": "Const", "attr": {"value": {"tensor": {"dtype": "DT_INT64", "tensorShape": {"dim": [{}]}}}, "dtype": {"type": "DT_INT64"}}}, {"name": "StatefulPartitionedCall/zeros", "op": "Const", "attr": {"value": {"tensor": {"dtype": "DT_INT64", "tensorShape": {}}}, "dtype": {"type": "DT_INT64"}}}, {"name": "StatefulPartitionedCall/onnx_tf_prefix_/mobilevit/encoder/layer.2/Transpose/perm", "op": "Const", "attr": {"value": {"tensor": {"dtype": "DT_INT32", "tensorShape": {"dim": [{"size": "4"}]}}}, "dtype": {"type": "DT_INT32"}}}, {"name": "StatefulPartitionedCall/onnx_tf_prefix_/mobilevit/encoder/layer.2/Concat_1", "op": "Const", "attr": {"dtype": {"type": "DT_INT64"}, "value": {"tensor": {"dtype": "DT_INT64", "tensorShape": {"dim": [{"size": "4"}]}}}}}, {"name": "StatefulPartitionedCall/Where_1", "op": "Const", "attr": {"dtype": {"type": "DT_INT64"}, "value": {"tensor": {"dtype": "DT_INT64", "tensorShape": {"dim": [{}, {"size": "1"}]}}}}}, {"name": "StatefulPartitionedCall/Cast_3", "op": "Const", "attr": {"dtype": {"type": "DT_INT64"}, "value": {"tensor": {"dtype": "DT_INT64", "tensorShape": {"dim": [{"size": "1"}]}}}}}, {"name": "StatefulPartitionedCall/GatherV2_1", "op": "Const", "attr": {"dtype": {"type": "DT_INT64"}, "value": {"tensor": {"dtype": "DT_INT64", "tensorShape": {"dim": [{}]}}}}}, {"name": "StatefulPartitionedCall/zeros_1", "op": "Const", "attr": {"dtype": {"type": "DT_INT64"}, "value": {"tensor": {"dtype": "DT_INT64", "tensorShape": {}}}}}, {"name": "StatefulPartitionedCall/onnx_tf_prefix_/mobilevit/encoder/layer.2/Transpose_1/perm", "op": "Const", "attr": {"value": {"tensor": {"dtype": "DT_INT32", "tensorShape": {"dim": [{"size": "4"}]}}}, "dtype": {"type": "DT_INT32"}}}, {"name": "StatefulPartitionedCall/onnx_tf_prefix_/mobilevit/encoder/layer.2/Concat_2", "op": "Const", "attr": {"value": {"tensor": {"dtype": "DT_INT64", "tensorShape": {"dim": [{"size": "3"}]}}}, "dtype": {"type": "DT_INT64"}}}, {"name": "StatefulPartitionedCall/Where_2", "op": "Const", "attr": {"dtype": {"type": "DT_INT64"}, "value": {"tensor": {"dtype": "DT_INT64", "tensorShape": {"dim": [{}, {"size": "1"}]}}}}}, {"name": "StatefulPartitionedCall/Cast_4", "op": "Const", "attr": {"value": {"tensor": {"dtype": "DT_INT64", "tensorShape": {"dim": [{"size": "1"}]}}}, "dtype": {"type": "DT_INT64"}}}, {"name": "StatefulPartitionedCall/GatherV2_2", "op": "Const", "attr": {"value": {"tensor": {"dtype": "DT_INT64", "tensorShape": {"dim": [{}]}}}, "dtype": {"type": "DT_INT64"}}}, {"name": "StatefulPartitionedCall/zeros_2", "op": "Const", "attr": {"value": {"tensor": {"dtype": "DT_INT64", "tensorShape": {}}}, "dtype": {"type": "DT_INT64"}}}, {"name": "StatefulPartitionedCall/onnx_tf_prefix_/mobilevit/encoder/layer.2/layernorm/ReduceMean/reduction_indices", "op": "Const", "attr": {"value": {"tensor": {"dtype": "DT_INT32", "tensorShape": {}}}, "dtype": {"type": "DT_INT32"}}}, {"name": "unknown_67", "op": "Const", "attr": {"value": {"tensor": {"dtype": "DT_FLOAT", "tensorShape": {"dim": [{"size": "96"}]}}}, "dtype": {"type": "DT_FLOAT"}}}, {"name": "StatefulPartitionedCall/onnx_tf_prefix_/mobilevit/encoder/layer.2/Concat_3", "op": "Const", "attr": {"value": {"tensor": {"dtype": "DT_INT64", "tensorShape": {"dim": [{"size": "4"}]}}}, "dtype": {"type": "DT_INT64"}}}, {"name": "StatefulPartitionedCall/Where_11", "op": "Const", "attr": {"dtype": {"type": "DT_INT64"}, "value": {"tensor": {"dtype": "DT_INT64", "tensorShape": {"dim": [{}, {"size": "1"}]}}}}}, {"name": "StatefulPartitionedCall/Cast_45", "op": "Const", "attr": {"value": {"tensor": {"dtype": "DT_INT64", "tensorShape": {"dim": [{"size": "1"}]}}}, "dtype": {"type": "DT_INT64"}}}, {"name": "StatefulPartitionedCall/GatherV2_11", "op": "Const", "attr": {"value": {"tensor": {"dtype": "DT_INT64", "tensorShape": {"dim": [{}]}}}, "dtype": {"type": "DT_INT64"}}}, {"name": "StatefulPartitionedCall/zeros_11", "op": "Const", "attr": {"value": {"tensor": {"dtype": "DT_INT64", "tensorShape": {}}}, "dtype": {"type": "DT_INT64"}}}, {"name": "StatefulPartitionedCall/onnx_tf_prefix_/mobilevit/encoder/layer.2/Transpose_2/perm", "op": "Const", "attr": {"value": {"tensor": {"dtype": "DT_INT32", "tensorShape": {"dim": [{"size": "4"}]}}}, "dtype": {"type": "DT_INT32"}}}, {"name": "StatefulPartitionedCall/onnx_tf_prefix_/mobilevit/encoder/layer.2/Concat_4", "op": "Const", "attr": {"dtype": {"type": "DT_INT64"}, "value": {"tensor": {"dtype": "DT_INT64", "tensorShape": {"dim": [{"size": "4"}]}}}}}, {"name": "StatefulPartitionedCall/Where_12", "op": "Const", "attr": {"value": {"tensor": {"dtype": "DT_INT64", "tensorShape": {"dim": [{}, {"size": "1"}]}}}, "dtype": {"type": "DT_INT64"}}}, {"name": "StatefulPartitionedCall/Cast_46", "op": "Const", "attr": {"value": {"tensor": {"dtype": "DT_INT64", "tensorShape": {"dim": [{"size": "1"}]}}}, "dtype": {"type": "DT_INT64"}}}, {"name": "StatefulPartitionedCall/GatherV2_12", "op": "Const", "attr": {"dtype": {"type": "DT_INT64"}, "value": {"tensor": {"dtype": "DT_INT64", "tensorShape": {"dim": [{}]}}}}}, {"name": "StatefulPartitionedCall/zeros_12", "op": "Const", "attr": {"dtype": {"type": "DT_INT64"}, "value": {"tensor": {"dtype": "DT_INT64", "tensorShape": {}}}}}, {"name": "StatefulPartitionedCall/onnx_tf_prefix_/mobilevit/encoder/layer.2/Transpose_3/perm", "op": "Const", "attr": {"value": {"tensor": {"dtype": "DT_INT32", "tensorShape": {"dim": [{"size": "4"}]}}}, "dtype": {"type": "DT_INT32"}}}, {"name": "StatefulPartitionedCall/onnx_tf_prefix_/mobilevit/encoder/layer.2/Concat_5", "op": "Const", "attr": {"value": {"tensor": {"dtype": "DT_INT64", "tensorShape": {"dim": [{"size": "4"}]}}}, "dtype": {"type": "DT_INT64"}}}, {"name": "StatefulPartitionedCall/Where_13", "op": "Const", "attr": {"value": {"tensor": {"dtype": "DT_INT64", "tensorShape": {"dim": [{}, {"size": "1"}]}}}, "dtype": {"type": "DT_INT64"}}}, {"name": "StatefulPartitionedCall/Cast_47", "op": "Const", "attr": {"value": {"tensor": {"dtype": "DT_INT64", "tensorShape": {"dim": [{"size": "1"}]}}}, "dtype": {"type": "DT_INT64"}}}, {"name": "StatefulPartitionedCall/GatherV2_13", "op": "Const", "attr": {"value": {"tensor": {"dtype": "DT_INT64", "tensorShape": {"dim": [{}]}}}, "dtype": {"type": "DT_INT64"}}}, {"name": "StatefulPartitionedCall/zeros_13", "op": "Const", "attr": {"value": {"tensor": {"dtype": "DT_INT64", "tensorShape": {}}}, "dtype": {"type": "DT_INT64"}}}, {"name": "StatefulPartitionedCall/transpose_55/perm", "op": "Const", "attr": {"value": {"tensor": {"dtype": "DT_INT32", "tensorShape": {"dim": [{"size": "4"}]}}}, "dtype": {"type": "DT_INT32"}}}, {"name": "StatefulPartitionedCall/split_13", "op": "Const", "attr": {"value": {"tensor": {"dtype": "DT_FLOAT", "tensorShape": {"dim": [{"size": "1"}, {"size": "1"}, {"size": "96"}, {"size": "64"}]}}}, "dtype": {"type": "DT_FLOAT"}}}, {"name": "unknown_69", "op": "Const", "attr": {"value": {"tensor": {"dtype": "DT_FLOAT", "tensorShape": {"dim": [{"size": "64"}]}}}, "dtype": {"type": "DT_FLOAT"}}}, {"name": "StatefulPartitionedCall/transpose_56/perm", "op": "Const", "attr": {"value": {"tensor": {"dtype": "DT_INT32", "tensorShape": {"dim": [{"size": "4"}]}}}, "dtype": {"type": "DT_INT32"}}}, {"name": "StatefulPartitionedCall/onnx_tf_prefix_/mobilevit/encoder/layer.2/Concat_6/axis", "op": "Const", "attr": {"dtype": {"type": "DT_INT32"}, "value": {"tensor": {"dtype": "DT_INT32", "tensorShape": {}}}}}, {"name": "StatefulPartitionedCall/Const_21", "op": "Const", "attr": {"dtype": {"type": "DT_INT32"}, "value": {"tensor": {"dtype": "DT_INT32", "tensorShape": {"dim": [{"size": "4"}, {"size": "2"}]}}}}}, {"name": "StatefulPartitionedCall/transpose_58/perm", "op": "Const", "attr": {"value": {"tensor": {"dtype": "DT_INT32", "tensorShape": {"dim": [{"size": "4"}]}}}, "dtype": {"type": "DT_INT32"}}}, {"name": "StatefulPartitionedCall/split_14", "op": "Const", "attr": {"value": {"tensor": {"dtype": "DT_FLOAT", "tensorShape": {"dim": [{"size": "3"}, {"size": "3"}, {"size": "128"}, {"size": "64"}]}}}, "dtype": {"type": "DT_FLOAT"}}}, {"name": "unknown_71", "op": "Const", "attr": {"value": {"tensor": {"dtype": "DT_FLOAT", "tensorShape": {"dim": [{"size": "64"}]}}}, "dtype": {"type": "DT_FLOAT"}}}, {"name": "StatefulPartitionedCall/transpose_59/perm", "op": "Const", "attr": {"value": {"tensor": {"dtype": "DT_INT32", "tensorShape": {"dim": [{"size": "4"}]}}}, "dtype": {"type": "DT_INT32"}}}, {"name": "StatefulPartitionedCall/transpose_61/perm", "op": "Const", "attr": {"value": {"tensor": {"dtype": "DT_INT32", "tensorShape": {"dim": [{"size": "4"}]}}}, "dtype": {"type": "DT_INT32"}}}, {"name": "StatefulPartitionedCall/split_15", "op": "Const", "attr": {"dtype": {"type": "DT_FLOAT"}, "value": {"tensor": {"dtype": "DT_FLOAT", "tensorShape": {"dim": [{"size": "1"}, {"size": "1"}, {"size": "64"}, {"size": "256"}]}}}}}, {"name": "unknown_73", "op": "Const", "attr": {"dtype": {"type": "DT_FLOAT"}, "value": {"tensor": {"dtype": "DT_FLOAT", "tensorShape": {"dim": [{"size": "256"}]}}}}}, {"name": "StatefulPartitionedCall/transpose_62/perm", "op": "Const", "attr": {"dtype": {"type": "DT_INT32"}, "value": {"tensor": {"dtype": "DT_INT32", "tensorShape": {"dim": [{"size": "4"}]}}}}}, {"name": "StatefulPartitionedCall/Const_22", "op": "Const", "attr": {"value": {"tensor": {"dtype": "DT_INT32", "tensorShape": {"dim": [{"size": "4"}, {"size": "2"}]}}}, "dtype": {"type": "DT_INT32"}}}, {"name": "StatefulPartitionedCall/transpose_64/perm", "op": "Const", "attr": {"value": {"tensor": {"dtype": "DT_INT32", "tensorShape": {"dim": [{"size": "4"}]}}}, "dtype": {"type": "DT_INT32"}}}, {"name": "StatefulPartitionedCall/Reshape_5", "op": "Const", "attr": {"dtype": {"type": "DT_FLOAT"}, "value": {"tensor": {"dtype": "DT_FLOAT", "tensorShape": {"dim": [{"size": "3"}, {"size": "3"}, {"size": "256"}, {"size": "1"}]}}}}}, {"name": "unknown_75", "op": "Const", "attr": {"value": {"tensor": {"dtype": "DT_FLOAT", "tensorShape": {"dim": [{"size": "256"}]}}}, "dtype": {"type": "DT_FLOAT"}}}, {"name": "StatefulPartitionedCall/transpose_65/perm", "op": "Const", "attr": {"dtype": {"type": "DT_INT32"}, "value": {"tensor": {"dtype": "DT_INT32", "tensorShape": {"dim": [{"size": "4"}]}}}}}, {"name": "StatefulPartitionedCall/transpose_67/perm", "op": "Const", "attr": {"value": {"tensor": {"dtype": "DT_INT32", "tensorShape": {"dim": [{"size": "4"}]}}}, "dtype": {"type": "DT_INT32"}}}, {"name": "StatefulPartitionedCall/split_16", "op": "Const", "attr": {"dtype": {"type": "DT_FLOAT"}, "value": {"tensor": {"dtype": "DT_FLOAT", "tensorShape": {"dim": [{"size": "1"}, {"size": "1"}, {"size": "256"}, {"size": "80"}]}}}}}, {"name": "unknown_77", "op": "Const", "attr": {"dtype": {"type": "DT_FLOAT"}, "value": {"tensor": {"dtype": "DT_FLOAT", "tensorShape": {"dim": [{"size": "80"}]}}}}}, {"name": "StatefulPartitionedCall/transpose_68/perm", "op": "Const", "attr": {"value": {"tensor": {"dtype": "DT_INT32", "tensorShape": {"dim": [{"size": "4"}]}}}, "dtype": {"type": "DT_INT32"}}}, {"name": "StatefulPartitionedCall/Const_23", "op": "Const", "attr": {"dtype": {"type": "DT_INT32"}, "value": {"tensor": {"dtype": "DT_INT32", "tensorShape": {"dim": [{"size": "4"}, {"size": "2"}]}}}}}, {"name": "StatefulPartitionedCall/transpose_70/perm", "op": "Const", "attr": {"value": {"tensor": {"dtype": "DT_INT32", "tensorShape": {"dim": [{"size": "4"}]}}}, "dtype": {"type": "DT_INT32"}}}, {"name": "StatefulPartitionedCall/split_17", "op": "Const", "attr": {"dtype": {"type": "DT_FLOAT"}, "value": {"tensor": {"dtype": "DT_FLOAT", "tensorShape": {"dim": [{"size": "3"}, {"size": "3"}, {"size": "80"}, {"size": "80"}]}}}}}, {"name": "unknown_79", "op": "Const", "attr": {"dtype": {"type": "DT_FLOAT"}, "value": {"tensor": {"dtype": "DT_FLOAT", "tensorShape": {"dim": [{"size": "80"}]}}}}}, {"name": "StatefulPartitionedCall/transpose_71/perm", "op": "Const", "attr": {"value": {"tensor": {"dtype": "DT_INT32", "tensorShape": {"dim": [{"size": "4"}]}}}, "dtype": {"type": "DT_INT32"}}}, {"name": "StatefulPartitionedCall/transpose_73/perm", "op": "Const", "attr": {"dtype": {"type": "DT_INT32"}, "value": {"tensor": {"dtype": "DT_INT32", "tensorShape": {"dim": [{"size": "4"}]}}}}}, {"name": "StatefulPartitionedCall/split_18", "op": "Const", "attr": {"value": {"tensor": {"dtype": "DT_FLOAT", "tensorShape": {"dim": [{"size": "1"}, {"size": "1"}, {"size": "80"}, {"size": "120"}]}}}, "dtype": {"type": "DT_FLOAT"}}}, {"name": "StatefulPartitionedCall/transpose_74/perm", "op": "Const", "attr": {"dtype": {"type": "DT_INT32"}, "value": {"tensor": {"dtype": "DT_INT32", "tensorShape": {"dim": [{"size": "4"}]}}}}}, {"name": "StatefulPartitionedCall/onnx_tf_prefix_/mobilevit/encoder/layer.3/Concat", "op": "Const", "attr": {"dtype": {"type": "DT_INT64"}, "value": {"tensor": {"dtype": "DT_INT64", "tensorShape": {"dim": [{"size": "4"}]}}}}}, {"name": "StatefulPartitionedCall/Where_14", "op": "Const", "attr": {"dtype": {"type": "DT_INT64"}, "value": {"tensor": {"dtype": "DT_INT64", "tensorShape": {"dim": [{}, {"size": "1"}]}}}}}, {"name": "StatefulPartitionedCall/Cast_50", "op": "Const", "attr": {"dtype": {"type": "DT_INT64"}, "value": {"tensor": {"dtype": "DT_INT64", "tensorShape": {"dim": [{"size": "1"}]}}}}}, {"name": "StatefulPartitionedCall/GatherV2_14", "op": "Const", "attr": {"value": {"tensor": {"dtype": "DT_INT64", "tensorShape": {"dim": [{}]}}}, "dtype": {"type": "DT_INT64"}}}, {"name": "StatefulPartitionedCall/zeros_14", "op": "Const", "attr": {"value": {"tensor": {"dtype": "DT_INT64", "tensorShape": {}}}, "dtype": {"type": "DT_INT64"}}}, {"name": "StatefulPartitionedCall/onnx_tf_prefix_/mobilevit/encoder/layer.3/Transpose/perm", "op": "Const", "attr": {"dtype": {"type": "DT_INT32"}, "value": {"tensor": {"dtype": "DT_INT32", "tensorShape": {"dim": [{"size": "4"}]}}}}}, {"name": "StatefulPartitionedCall/onnx_tf_prefix_/mobilevit/encoder/layer.3/Concat_1", "op": "Const", "attr": {"value": {"tensor": {"dtype": "DT_INT64", "tensorShape": {"dim": [{"size": "4"}]}}}, "dtype": {"type": "DT_INT64"}}}, {"name": "StatefulPartitionedCall/Where_15", "op": "Const", "attr": {"dtype": {"type": "DT_INT64"}, "value": {"tensor": {"dtype": "DT_INT64", "tensorShape": {"dim": [{}, {"size": "1"}]}}}}}, {"name": "StatefulPartitionedCall/Cast_51", "op": "Const", "attr": {"dtype": {"type": "DT_INT64"}, "value": {"tensor": {"dtype": "DT_INT64", "tensorShape": {"dim": [{"size": "1"}]}}}}}, {"name": "StatefulPartitionedCall/GatherV2_15", "op": "Const", "attr": {"value": {"tensor": {"dtype": "DT_INT64", "tensorShape": {"dim": [{}]}}}, "dtype": {"type": "DT_INT64"}}}, {"name": "StatefulPartitionedCall/zeros_15", "op": "Const", "attr": {"value": {"tensor": {"dtype": "DT_INT64", "tensorShape": {}}}, "dtype": {"type": "DT_INT64"}}}, {"name": "StatefulPartitionedCall/onnx_tf_prefix_/mobilevit/encoder/layer.3/Transpose_1/perm", "op": "Const", "attr": {"value": {"tensor": {"dtype": "DT_INT32", "tensorShape": {"dim": [{"size": "4"}]}}}, "dtype": {"type": "DT_INT32"}}}, {"name": "StatefulPartitionedCall/onnx_tf_prefix_/mobilevit/encoder/layer.3/Concat_2", "op": "Const", "attr": {"dtype": {"type": "DT_INT64"}, "value": {"tensor": {"dtype": "DT_INT64", "tensorShape": {"dim": [{"size": "3"}]}}}}}, {"name": "StatefulPartitionedCall/Where_16", "op": "Const", "attr": {"value": {"tensor": {"dtype": "DT_INT64", "tensorShape": {"dim": [{}, {"size": "1"}]}}}, "dtype": {"type": "DT_INT64"}}}, {"name": "StatefulPartitionedCall/Cast_52", "op": "Const", "attr": {"value": {"tensor": {"dtype": "DT_INT64", "tensorShape": {"dim": [{"size": "1"}]}}}, "dtype": {"type": "DT_INT64"}}}, {"name": "StatefulPartitionedCall/GatherV2_16", "op": "Const", "attr": {"value": {"tensor": {"dtype": "DT_INT64", "tensorShape": {"dim": [{}]}}}, "dtype": {"type": "DT_INT64"}}}, {"name": "StatefulPartitionedCall/zeros_16", "op": "Const", "attr": {"value": {"tensor": {"dtype": "DT_INT64", "tensorShape": {}}}, "dtype": {"type": "DT_INT64"}}}, {"name": "StatefulPartitionedCall/onnx_tf_prefix_/mobilevit/encoder/layer.3/layernorm/ReduceMean/reduction_indices", "op": "Const", "attr": {"dtype": {"type": "DT_INT32"}, "value": {"tensor": {"dtype": "DT_INT32", "tensorShape": {}}}}}, {"name": "unknown_146", "op": "Const", "attr": {"dtype": {"type": "DT_FLOAT"}, "value": {"tensor": {"dtype": "DT_FLOAT", "tensorShape": {"dim": [{"size": "120"}]}}}}}, {"name": "StatefulPartitionedCall/onnx_tf_prefix_/mobilevit/encoder/layer.3/Concat_3", "op": "Const", "attr": {"dtype": {"type": "DT_INT64"}, "value": {"tensor": {"dtype": "DT_INT64", "tensorShape": {"dim": [{"size": "4"}]}}}}}, {"name": "StatefulPartitionedCall/Where_33", "op": "Const", "attr": {"dtype": {"type": "DT_INT64"}, "value": {"tensor": {"dtype": "DT_INT64", "tensorShape": {"dim": [{}, {"size": "1"}]}}}}}, {"name": "StatefulPartitionedCall/Cast_133", "op": "Const", "attr": {"value": {"tensor": {"dtype": "DT_INT64", "tensorShape": {"dim": [{"size": "1"}]}}}, "dtype": {"type": "DT_INT64"}}}, {"name": "StatefulPartitionedCall/GatherV2_33", "op": "Const", "attr": {"dtype": {"type": "DT_INT64"}, "value": {"tensor": {"dtype": "DT_INT64", "tensorShape": {"dim": [{}]}}}}}, {"name": "StatefulPartitionedCall/zeros_33", "op": "Const", "attr": {"dtype": {"type": "DT_INT64"}, "value": {"tensor": {"dtype": "DT_INT64", "tensorShape": {}}}}}, {"name": "StatefulPartitionedCall/onnx_tf_prefix_/mobilevit/encoder/layer.3/Transpose_2/perm", "op": "Const", "attr": {"value": {"tensor": {"dtype": "DT_INT32", "tensorShape": {"dim": [{"size": "4"}]}}}, "dtype": {"type": "DT_INT32"}}}, {"name": "StatefulPartitionedCall/onnx_tf_prefix_/mobilevit/encoder/layer.3/Concat_4", "op": "Const", "attr": {"value": {"tensor": {"dtype": "DT_INT64", "tensorShape": {"dim": [{"size": "4"}]}}}, "dtype": {"type": "DT_INT64"}}}, {"name": "StatefulPartitionedCall/Where_34", "op": "Const", "attr": {"value": {"tensor": {"dtype": "DT_INT64", "tensorShape": {"dim": [{}, {"size": "1"}]}}}, "dtype": {"type": "DT_INT64"}}}, {"name": "StatefulPartitionedCall/Cast_134", "op": "Const", "attr": {"dtype": {"type": "DT_INT64"}, "value": {"tensor": {"dtype": "DT_INT64", "tensorShape": {"dim": [{"size": "1"}]}}}}}, {"name": "StatefulPartitionedCall/GatherV2_34", "op": "Const", "attr": {"dtype": {"type": "DT_INT64"}, "value": {"tensor": {"dtype": "DT_INT64", "tensorShape": {"dim": [{}]}}}}}, {"name": "StatefulPartitionedCall/zeros_34", "op": "Const", "attr": {"value": {"tensor": {"dtype": "DT_INT64", "tensorShape": {}}}, "dtype": {"type": "DT_INT64"}}}, {"name": "StatefulPartitionedCall/onnx_tf_prefix_/mobilevit/encoder/layer.3/Transpose_3/perm", "op": "Const", "attr": {"value": {"tensor": {"dtype": "DT_INT32", "tensorShape": {"dim": [{"size": "4"}]}}}, "dtype": {"type": "DT_INT32"}}}, {"name": "StatefulPartitionedCall/onnx_tf_prefix_/mobilevit/encoder/layer.3/Concat_5", "op": "Const", "attr": {"dtype": {"type": "DT_INT64"}, "value": {"tensor": {"dtype": "DT_INT64", "tensorShape": {"dim": [{"size": "4"}]}}}}}, {"name": "StatefulPartitionedCall/Where_35", "op": "Const", "attr": {"dtype": {"type": "DT_INT64"}, "value": {"tensor": {"dtype": "DT_INT64", "tensorShape": {"dim": [{}, {"size": "1"}]}}}}}, {"name": "StatefulPartitionedCall/Cast_135", "op": "Const", "attr": {"value": {"tensor": {"dtype": "DT_INT64", "tensorShape": {"dim": [{"size": "1"}]}}}, "dtype": {"type": "DT_INT64"}}}, {"name": "StatefulPartitionedCall/GatherV2_35", "op": "Const", "attr": {"value": {"tensor": {"dtype": "DT_INT64", "tensorShape": {"dim": [{}]}}}, "dtype": {"type": "DT_INT64"}}}, {"name": "StatefulPartitionedCall/zeros_35", "op": "Const", "attr": {"value": {"tensor": {"dtype": "DT_INT64", "tensorShape": {}}}, "dtype": {"type": "DT_INT64"}}}, {"name": "StatefulPartitionedCall/transpose_76/perm", "op": "Const", "attr": {"dtype": {"type": "DT_INT32"}, "value": {"tensor": {"dtype": "DT_INT32", "tensorShape": {"dim": [{"size": "4"}]}}}}}, {"name": "StatefulPartitionedCall/split_19", "op": "Const", "attr": {"value": {"tensor": {"dtype": "DT_FLOAT", "tensorShape": {"dim": [{"size": "1"}, {"size": "1"}, {"size": "120"}, {"size": "80"}]}}}, "dtype": {"type": "DT_FLOAT"}}}, {"name": "unknown_148", "op": "Const", "attr": {"dtype": {"type": "DT_FLOAT"}, "value": {"tensor": {"dtype": "DT_FLOAT", "tensorShape": {"dim": [{"size": "80"}]}}}}}, {"name": "StatefulPartitionedCall/transpose_77/perm", "op": "Const", "attr": {"value": {"tensor": {"dtype": "DT_INT32", "tensorShape": {"dim": [{"size": "4"}]}}}, "dtype": {"type": "DT_INT32"}}}, {"name": "StatefulPartitionedCall/onnx_tf_prefix_/mobilevit/encoder/layer.3/Concat_6/axis", "op": "Const", "attr": {"value": {"tensor": {"dtype": "DT_INT32", "tensorShape": {}}}, "dtype": {"type": "DT_INT32"}}}, {"name": "StatefulPartitionedCall/Const_46", "op": "Const", "attr": {"dtype": {"type": "DT_INT32"}, "value": {"tensor": {"dtype": "DT_INT32", "tensorShape": {"dim": [{"size": "4"}, {"size": "2"}]}}}}}, {"name": "StatefulPartitionedCall/transpose_79/perm", "op": "Const", "attr": {"value": {"tensor": {"dtype": "DT_INT32", "tensorShape": {"dim": [{"size": "4"}]}}}, "dtype": {"type": "DT_INT32"}}}, {"name": "StatefulPartitionedCall/split_20", "op": "Const", "attr": {"dtype": {"type": "DT_FLOAT"}, "value": {"tensor": {"dtype": "DT_FLOAT", "tensorShape": {"dim": [{"size": "3"}, {"size": "3"}, {"size": "160"}, {"size": "80"}]}}}}}, {"name": "unknown_150", "op": "Const", "attr": {"value": {"tensor": {"dtype": "DT_FLOAT", "tensorShape": {"dim": [{"size": "80"}]}}}, "dtype": {"type": "DT_FLOAT"}}}, {"name": "StatefulPartitionedCall/transpose_80/perm", "op": "Const", "attr": {"dtype": {"type": "DT_INT32"}, "value": {"tensor": {"dtype": "DT_INT32", "tensorShape": {"dim": [{"size": "4"}]}}}}}, {"name": "StatefulPartitionedCall/transpose_82/perm", "op": "Const", "attr": {"value": {"tensor": {"dtype": "DT_INT32", "tensorShape": {"dim": [{"size": "4"}]}}}, "dtype": {"type": "DT_INT32"}}}, {"name": "StatefulPartitionedCall/split_21", "op": "Const", "attr": {"value": {"tensor": {"dtype": "DT_FLOAT", "tensorShape": {"dim": [{"size": "1"}, {"size": "1"}, {"size": "80"}, {"size": "320"}]}}}, "dtype": {"type": "DT_FLOAT"}}}, {"name": "unknown_152", "op": "Const", "attr": {"value": {"tensor": {"dtype": "DT_FLOAT", "tensorShape": {"dim": [{"size": "320"}]}}}, "dtype": {"type": "DT_FLOAT"}}}, {"name": "StatefulPartitionedCall/transpose_83/perm", "op": "Const", "attr": {"value": {"tensor": {"dtype": "DT_INT32", "tensorShape": {"dim": [{"size": "4"}]}}}, "dtype": {"type": "DT_INT32"}}}, {"name": "StatefulPartitionedCall/Const_47", "op": "Const", "attr": {"dtype": {"type": "DT_INT32"}, "value": {"tensor": {"dtype": "DT_INT32", "tensorShape": {"dim": [{"size": "4"}, {"size": "2"}]}}}}}, {"name": "StatefulPartitionedCall/transpose_85/perm", "op": "Const", "attr": {"dtype": {"type": "DT_INT32"}, "value": {"tensor": {"dtype": "DT_INT32", "tensorShape": {"dim": [{"size": "4"}]}}}}}, {"name": "StatefulPartitionedCall/Reshape_6", "op": "Const", "attr": {"value": {"tensor": {"dtype": "DT_FLOAT", "tensorShape": {"dim": [{"size": "3"}, {"size": "3"}, {"size": "320"}, {"size": "1"}]}}}, "dtype": {"type": "DT_FLOAT"}}}, {"name": "unknown_154", "op": "Const", "attr": {"dtype": {"type": "DT_FLOAT"}, "value": {"tensor": {"dtype": "DT_FLOAT", "tensorShape": {"dim": [{"size": "320"}]}}}}}, {"name": "StatefulPartitionedCall/transpose_86/perm", "op": "Const", "attr": {"dtype": {"type": "DT_INT32"}, "value": {"tensor": {"dtype": "DT_INT32", "tensorShape": {"dim": [{"size": "4"}]}}}}}, {"name": "StatefulPartitionedCall/transpose_88/perm", "op": "Const", "attr": {"value": {"tensor": {"dtype": "DT_INT32", "tensorShape": {"dim": [{"size": "4"}]}}}, "dtype": {"type": "DT_INT32"}}}, {"name": "StatefulPartitionedCall/split_22", "op": "Const", "attr": {"value": {"tensor": {"dtype": "DT_FLOAT", "tensorShape": {"dim": [{"size": "1"}, {"size": "1"}, {"size": "320"}, {"size": "96"}]}}}, "dtype": {"type": "DT_FLOAT"}}}, {"name": "unknown_156", "op": "Const", "attr": {"value": {"tensor": {"dtype": "DT_FLOAT", "tensorShape": {"dim": [{"size": "96"}]}}}, "dtype": {"type": "DT_FLOAT"}}}, {"name": "StatefulPartitionedCall/transpose_89/perm", "op": "Const", "attr": {"value": {"tensor": {"dtype": "DT_INT32", "tensorShape": {"dim": [{"size": "4"}]}}}, "dtype": {"type": "DT_INT32"}}}, {"name": "StatefulPartitionedCall/Const_48", "op": "Const", "attr": {"dtype": {"type": "DT_INT32"}, "value": {"tensor": {"dtype": "DT_INT32", "tensorShape": {"dim": [{"size": "4"}, {"size": "2"}]}}}}}, {"name": "StatefulPartitionedCall/transpose_91/perm", "op": "Const", "attr": {"dtype": {"type": "DT_INT32"}, "value": {"tensor": {"dtype": "DT_INT32", "tensorShape": {"dim": [{"size": "4"}]}}}}}, {"name": "StatefulPartitionedCall/split_23", "op": "Const", "attr": {"dtype": {"type": "DT_FLOAT"}, "value": {"tensor": {"dtype": "DT_FLOAT", "tensorShape": {"dim": [{"size": "3"}, {"size": "3"}, {"size": "96"}, {"size": "96"}]}}}}}, {"name": "unknown_158", "op": "Const", "attr": {"dtype": {"type": "DT_FLOAT"}, "value": {"tensor": {"dtype": "DT_FLOAT", "tensorShape": {"dim": [{"size": "96"}]}}}}}, {"name": "StatefulPartitionedCall/transpose_92/perm", "op": "Const", "attr": {"dtype": {"type": "DT_INT32"}, "value": {"tensor": {"dtype": "DT_INT32", "tensorShape": {"dim": [{"size": "4"}]}}}}}, {"name": "StatefulPartitionedCall/transpose_94/perm", "op": "Const", "attr": {"value": {"tensor": {"dtype": "DT_INT32", "tensorShape": {"dim": [{"size": "4"}]}}}, "dtype": {"type": "DT_INT32"}}}, {"name": "StatefulPartitionedCall/split_24", "op": "Const", "attr": {"dtype": {"type": "DT_FLOAT"}, "value": {"tensor": {"dtype": "DT_FLOAT", "tensorShape": {"dim": [{"size": "1"}, {"size": "1"}, {"size": "96"}, {"size": "144"}]}}}}}, {"name": "StatefulPartitionedCall/transpose_95/perm", "op": "Const", "attr": {"value": {"tensor": {"dtype": "DT_INT32", "tensorShape": {"dim": [{"size": "4"}]}}}, "dtype": {"type": "DT_INT32"}}}, {"name": "StatefulPartitionedCall/onnx_tf_prefix_/mobilevit/encoder/layer.4/Concat", "op": "Const", "attr": {"dtype": {"type": "DT_INT64"}, "value": {"tensor": {"dtype": "DT_INT64", "tensorShape": {"dim": [{"size": "4"}]}}}}}, {"name": "StatefulPartitionedCall/Where_36", "op": "Const", "attr": {"value": {"tensor": {"dtype": "DT_INT64", "tensorShape": {"dim": [{}, {"size": "1"}]}}}, "dtype": {"type": "DT_INT64"}}}, {"name": "StatefulPartitionedCall/Cast_138", "op": "Const", "attr": {"value": {"tensor": {"dtype": "DT_INT64", "tensorShape": {"dim": [{"size": "1"}]}}}, "dtype": {"type": "DT_INT64"}}}, {"name": "StatefulPartitionedCall/GatherV2_36", "op": "Const", "attr": {"dtype": {"type": "DT_INT64"}, "value": {"tensor": {"dtype": "DT_INT64", "tensorShape": {"dim": [{}]}}}}}, {"name": "StatefulPartitionedCall/zeros_36", "op": "Const", "attr": {"dtype": {"type": "DT_INT64"}, "value": {"tensor": {"dtype": "DT_INT64", "tensorShape": {}}}}}, {"name": "StatefulPartitionedCall/onnx_tf_prefix_/mobilevit/encoder/layer.4/Transpose/perm", "op": "Const", "attr": {"value": {"tensor": {"dtype": "DT_INT32", "tensorShape": {"dim": [{"size": "4"}]}}}, "dtype": {"type": "DT_INT32"}}}, {"name": "StatefulPartitionedCall/onnx_tf_prefix_/mobilevit/encoder/layer.4/Concat_1", "op": "Const", "attr": {"dtype": {"type": "DT_INT64"}, "value": {"tensor": {"dtype": "DT_INT64", "tensorShape": {"dim": [{"size": "4"}]}}}}}, {"name": "StatefulPartitionedCall/Where_37", "op": "Const", "attr": {"dtype": {"type": "DT_INT64"}, "value": {"tensor": {"dtype": "DT_INT64", "tensorShape": {"dim": [{}, {"size": "1"}]}}}}}, {"name": "StatefulPartitionedCall/Cast_139", "op": "Const", "attr": {"dtype": {"type": "DT_INT64"}, "value": {"tensor": {"dtype": "DT_INT64", "tensorShape": {"dim": [{"size": "1"}]}}}}}, {"name": "StatefulPartitionedCall/GatherV2_37", "op": "Const", "attr": {"dtype": {"type": "DT_INT64"}, "value": {"tensor": {"dtype": "DT_INT64", "tensorShape": {"dim": [{}]}}}}}, {"name": "StatefulPartitionedCall/zeros_37", "op": "Const", "attr": {"dtype": {"type": "DT_INT64"}, "value": {"tensor": {"dtype": "DT_INT64", "tensorShape": {}}}}}, {"name": "StatefulPartitionedCall/onnx_tf_prefix_/mobilevit/encoder/layer.4/Transpose_1/perm", "op": "Const", "attr": {"dtype": {"type": "DT_INT32"}, "value": {"tensor": {"dtype": "DT_INT32", "tensorShape": {"dim": [{"size": "4"}]}}}}}, {"name": "StatefulPartitionedCall/onnx_tf_prefix_/mobilevit/encoder/layer.4/Concat_2", "op": "Const", "attr": {"dtype": {"type": "DT_INT64"}, "value": {"tensor": {"dtype": "DT_INT64", "tensorShape": {"dim": [{"size": "3"}]}}}}}, {"name": "StatefulPartitionedCall/Where_38", "op": "Const", "attr": {"dtype": {"type": "DT_INT64"}, "value": {"tensor": {"dtype": "DT_INT64", "tensorShape": {"dim": [{}, {"size": "1"}]}}}}}, {"name": "StatefulPartitionedCall/Cast_140", "op": "Const", "attr": {"dtype": {"type": "DT_INT64"}, "value": {"tensor": {"dtype": "DT_INT64", "tensorShape": {"dim": [{"size": "1"}]}}}}}, {"name": "StatefulPartitionedCall/GatherV2_38", "op": "Const", "attr": {"dtype": {"type": "DT_INT64"}, "value": {"tensor": {"dtype": "DT_INT64", "tensorShape": {"dim": [{}]}}}}}, {"name": "StatefulPartitionedCall/zeros_38", "op": "Const", "attr": {"dtype": {"type": "DT_INT64"}, "value": {"tensor": {"dtype": "DT_INT64", "tensorShape": {}}}}}, {"name": "StatefulPartitionedCall/onnx_tf_prefix_/mobilevit/encoder/layer.4/layernorm/ReduceMean/reduction_indices", "op": "Const", "attr": {"value": {"tensor": {"dtype": "DT_INT32", "tensorShape": {}}}, "dtype": {"type": "DT_INT32"}}}, {"name": "unknown_209", "op": "Const", "attr": {"value": {"tensor": {"dtype": "DT_FLOAT", "tensorShape": {"dim": [{"size": "144"}]}}}, "dtype": {"type": "DT_FLOAT"}}}, {"name": "StatefulPartitionedCall/onnx_tf_prefix_/mobilevit/encoder/layer.4/Concat_3", "op": "Const", "attr": {"value": {"tensor": {"dtype": "DT_INT64", "tensorShape": {"dim": [{"size": "4"}]}}}, "dtype": {"type": "DT_INT64"}}}, {"name": "StatefulPartitionedCall/Where_51", "op": "Const", "attr": {"dtype": {"type": "DT_INT64"}, "value": {"tensor": {"dtype": "DT_INT64", "tensorShape": {"dim": [{}, {"size": "1"}]}}}}}, {"name": "StatefulPartitionedCall/Cast_201", "op": "Const", "attr": {"value": {"tensor": {"dtype": "DT_INT64", "tensorShape": {"dim": [{"size": "1"}]}}}, "dtype": {"type": "DT_INT64"}}}, {"name": "StatefulPartitionedCall/GatherV2_51", "op": "Const", "attr": {"dtype": {"type": "DT_INT64"}, "value": {"tensor": {"dtype": "DT_INT64", "tensorShape": {"dim": [{}]}}}}}, {"name": "StatefulPartitionedCall/zeros_51", "op": "Const", "attr": {"value": {"tensor": {"dtype": "DT_INT64", "tensorShape": {}}}, "dtype": {"type": "DT_INT64"}}}, {"name": "StatefulPartitionedCall/onnx_tf_prefix_/mobilevit/encoder/layer.4/Transpose_2/perm", "op": "Const", "attr": {"value": {"tensor": {"dtype": "DT_INT32", "tensorShape": {"dim": [{"size": "4"}]}}}, "dtype": {"type": "DT_INT32"}}}, {"name": "StatefulPartitionedCall/onnx_tf_prefix_/mobilevit/encoder/layer.4/Concat_4", "op": "Const", "attr": {"dtype": {"type": "DT_INT64"}, "value": {"tensor": {"dtype": "DT_INT64", "tensorShape": {"dim": [{"size": "4"}]}}}}}, {"name": "StatefulPartitionedCall/Where_52", "op": "Const", "attr": {"dtype": {"type": "DT_INT64"}, "value": {"tensor": {"dtype": "DT_INT64", "tensorShape": {"dim": [{}, {"size": "1"}]}}}}}, {"name": "StatefulPartitionedCall/Cast_202", "op": "Const", "attr": {"value": {"tensor": {"dtype": "DT_INT64", "tensorShape": {"dim": [{"size": "1"}]}}}, "dtype": {"type": "DT_INT64"}}}, {"name": "StatefulPartitionedCall/GatherV2_52", "op": "Const", "attr": {"dtype": {"type": "DT_INT64"}, "value": {"tensor": {"dtype": "DT_INT64", "tensorShape": {"dim": [{}]}}}}}, {"name": "StatefulPartitionedCall/zeros_52", "op": "Const", "attr": {"dtype": {"type": "DT_INT64"}, "value": {"tensor": {"dtype": "DT_INT64", "tensorShape": {}}}}}, {"name": "StatefulPartitionedCall/onnx_tf_prefix_/mobilevit/encoder/layer.4/Transpose_3/perm", "op": "Const", "attr": {"dtype": {"type": "DT_INT32"}, "value": {"tensor": {"dtype": "DT_INT32", "tensorShape": {"dim": [{"size": "4"}]}}}}}, {"name": "StatefulPartitionedCall/onnx_tf_prefix_/mobilevit/encoder/layer.4/Concat_5", "op": "Const", "attr": {"dtype": {"type": "DT_INT64"}, "value": {"tensor": {"dtype": "DT_INT64", "tensorShape": {"dim": [{"size": "4"}]}}}}}, {"name": "StatefulPartitionedCall/Where_53", "op": "Const", "attr": {"dtype": {"type": "DT_INT64"}, "value": {"tensor": {"dtype": "DT_INT64", "tensorShape": {"dim": [{}, {"size": "1"}]}}}}}, {"name": "StatefulPartitionedCall/Cast_203", "op": "Const", "attr": {"dtype": {"type": "DT_INT64"}, "value": {"tensor": {"dtype": "DT_INT64", "tensorShape": {"dim": [{"size": "1"}]}}}}}, {"name": "StatefulPartitionedCall/GatherV2_53", "op": "Const", "attr": {"value": {"tensor": {"dtype": "DT_INT64", "tensorShape": {"dim": [{}]}}}, "dtype": {"type": "DT_INT64"}}}, {"name": "StatefulPartitionedCall/zeros_53", "op": "Const", "attr": {"dtype": {"type": "DT_INT64"}, "value": {"tensor": {"dtype": "DT_INT64", "tensorShape": {}}}}}, {"name": "StatefulPartitionedCall/transpose_97/perm", "op": "Const", "attr": {"dtype": {"type": "DT_INT32"}, "value": {"tensor": {"dtype": "DT_INT32", "tensorShape": {"dim": [{"size": "4"}]}}}}}, {"name": "StatefulPartitionedCall/split_25", "op": "Const", "attr": {"dtype": {"type": "DT_FLOAT"}, "value": {"tensor": {"dtype": "DT_FLOAT", "tensorShape": {"dim": [{"size": "1"}, {"size": "1"}, {"size": "144"}, {"size": "96"}]}}}}}, {"name": "unknown_211", "op": "Const", "attr": {"value": {"tensor": {"dtype": "DT_FLOAT", "tensorShape": {"dim": [{"size": "96"}]}}}, "dtype": {"type": "DT_FLOAT"}}}, {"name": "StatefulPartitionedCall/transpose_98/perm", "op": "Const", "attr": {"dtype": {"type": "DT_INT32"}, "value": {"tensor": {"dtype": "DT_INT32", "tensorShape": {"dim": [{"size": "4"}]}}}}}, {"name": "StatefulPartitionedCall/onnx_tf_prefix_/mobilevit/encoder/layer.4/Concat_6/axis", "op": "Const", "attr": {"dtype": {"type": "DT_INT32"}, "value": {"tensor": {"dtype": "DT_INT32", "tensorShape": {}}}}}, {"name": "StatefulPartitionedCall/Const_67", "op": "Const", "attr": {"value": {"tensor": {"dtype": "DT_INT32", "tensorShape": {"dim": [{"size": "4"}, {"size": "2"}]}}}, "dtype": {"type": "DT_INT32"}}}, {"name": "StatefulPartitionedCall/transpose_100/perm", "op": "Const", "attr": {"dtype": {"type": "DT_INT32"}, "value": {"tensor": {"dtype": "DT_INT32", "tensorShape": {"dim": [{"size": "4"}]}}}}}, {"name": "StatefulPartitionedCall/split_26", "op": "Const", "attr": {"dtype": {"type": "DT_FLOAT"}, "value": {"tensor": {"dtype": "DT_FLOAT", "tensorShape": {"dim": [{"size": "3"}, {"size": "3"}, {"size": "192"}, {"size": "96"}]}}}}}, {"name": "unknown_213", "op": "Const", "attr": {"dtype": {"type": "DT_FLOAT"}, "value": {"tensor": {"dtype": "DT_FLOAT", "tensorShape": {"dim": [{"size": "96"}]}}}}}, {"name": "StatefulPartitionedCall/transpose_101/perm", "op": "Const", "attr": {"dtype": {"type": "DT_INT32"}, "value": {"tensor": {"dtype": "DT_INT32", "tensorShape": {"dim": [{"size": "4"}]}}}}}, {"name": "StatefulPartitionedCall/transpose_103/perm", "op": "Const", "attr": {"value": {"tensor": {"dtype": "DT_INT32", "tensorShape": {"dim": [{"size": "4"}]}}}, "dtype": {"type": "DT_INT32"}}}, {"name": "StatefulPartitionedCall/split_27", "op": "Const", "attr": {"value": {"tensor": {"dtype": "DT_FLOAT", "tensorShape": {"dim": [{"size": "1"}, {"size": "1"}, {"size": "96"}, {"size": "384"}]}}}, "dtype": {"type": "DT_FLOAT"}}}, {"name": "unknown_215", "op": "Const", "attr": {"value": {"tensor": {"dtype": "DT_FLOAT", "tensorShape": {"dim": [{"size": "384"}]}}}, "dtype": {"type": "DT_FLOAT"}}}, {"name": "StatefulPartitionedCall/transpose_104/perm", "op": "Const", "attr": {"value": {"tensor": {"dtype": "DT_INT32", "tensorShape": {"dim": [{"size": "4"}]}}}, "dtype": {"type": "DT_INT32"}}}, {"name": "StatefulPartitionedCall/onnx_tf_prefix_/mobilevit/ReduceMean/reduction_indices", "op": "Const", "attr": {"value": {"tensor": {"dtype": "DT_INT32", "tensorShape": {"dim": [{"size": "2"}]}}}, "dtype": {"type": "DT_INT32"}}}, {"name": "StatefulPartitionedCall/transpose_105", "op": "Const", "attr": {"dtype": {"type": "DT_FLOAT"}, "value": {"tensor": {"dtype": "DT_FLOAT", "tensorShape": {"dim": [{"size": "384"}, {"size": "64"}]}}}}}, {"name": "StatefulPartitionedCall/mul_1", "op": "Const", "attr": {"dtype": {"type": "DT_FLOAT"}, "value": {"tensor": {"dtype": "DT_FLOAT", "tensorShape": {"dim": [{"size": "64"}]}}}}}, {"name": "StatefulPartitionedCall/LogicalAnd_71", "op": "Const", "attr": {"value": {"tensor": {"dtype": "DT_BOOL", "tensorShape": {}}}, "dtype": {"type": "DT_BOOL"}}}, {"name": "StatefulPartitionedCall/assert_equal_143/y", "op": "Const", "attr": {"dtype": {"type": "DT_BOOL"}, "value": {"tensor": {"dtype": "DT_BOOL", "tensorShape": {}}}}}, {"name": "StatefulPartitionedCall/assert_equal_143/All", "op": "Const", "attr": {"value": {"tensor": {"dtype": "DT_BOOL", "tensorShape": {}}}, "dtype": {"type": "DT_BOOL"}}}, {"name": "StatefulPartitionedCall/LogicalAnd_70", "op": "Const", "attr": {"value": {"tensor": {"dtype": "DT_BOOL", "tensorShape": {}}}, "dtype": {"type": "DT_BOOL"}}}, {"name": "StatefulPartitionedCall/assert_equal_141/y", "op": "Const", "attr": {"dtype": {"type": "DT_BOOL"}, "value": {"tensor": {"dtype": "DT_BOOL", "tensorShape": {}}}}}, {"name": "StatefulPartitionedCall/assert_equal_141/All", "op": "Const", "attr": {"dtype": {"type": "DT_BOOL"}, "value": {"tensor": {"dtype": "DT_BOOL", "tensorShape": {}}}}}, {"name": "StatefulPartitionedCall/LogicalAnd_69", "op": "Const", "attr": {"value": {"tensor": {"dtype": "DT_BOOL", "tensorShape": {}}}, "dtype": {"type": "DT_BOOL"}}}, {"name": "StatefulPartitionedCall/assert_equal_139/y", "op": "Const", "attr": {"dtype": {"type": "DT_BOOL"}, "value": {"tensor": {"dtype": "DT_BOOL", "tensorShape": {}}}}}, {"name": "StatefulPartitionedCall/assert_equal_139/All", "op": "Const", "attr": {"dtype": {"type": "DT_BOOL"}, "value": {"tensor": {"dtype": "DT_BOOL", "tensorShape": {}}}}}, {"name": "StatefulPartitionedCall/LogicalAnd_68", "op": "Const", "attr": {"value": {"tensor": {"dtype": "DT_BOOL", "tensorShape": {}}}, "dtype": {"type": "DT_BOOL"}}}, {"name": "StatefulPartitionedCall/assert_equal_137/y", "op": "Const", "attr": {"value": {"tensor": {"dtype": "DT_BOOL", "tensorShape": {}}}, "dtype": {"type": "DT_BOOL"}}}, {"name": "StatefulPartitionedCall/assert_equal_137/All", "op": "Const", "attr": {"value": {"tensor": {"dtype": "DT_BOOL", "tensorShape": {}}}, "dtype": {"type": "DT_BOOL"}}}, {"name": "StatefulPartitionedCall/LogicalAnd_67", "op": "Const", "attr": {"value": {"tensor": {"dtype": "DT_BOOL", "tensorShape": {}}}, "dtype": {"type": "DT_BOOL"}}}, {"name": "StatefulPartitionedCall/assert_equal_135/y", "op": "Const", "attr": {"value": {"tensor": {"dtype": "DT_BOOL", "tensorShape": {}}}, "dtype": {"type": "DT_BOOL"}}}, {"name": "StatefulPartitionedCall/assert_equal_135/All", "op": "Const", "attr": {"value": {"tensor": {"dtype": "DT_BOOL", "tensorShape": {}}}, "dtype": {"type": "DT_BOOL"}}}, {"name": "StatefulPartitionedCall/LogicalAnd_66", "op": "Const", "attr": {"dtype": {"type": "DT_BOOL"}, "value": {"tensor": {"dtype": "DT_BOOL", "tensorShape": {}}}}}, {"name": "StatefulPartitionedCall/assert_equal_133/y", "op": "Const", "attr": {"value": {"tensor": {"dtype": "DT_BOOL", "tensorShape": {}}}, "dtype": {"type": "DT_BOOL"}}}, {"name": "StatefulPartitionedCall/assert_equal_133/All", "op": "Const", "attr": {"dtype": {"type": "DT_BOOL"}, "value": {"tensor": {"dtype": "DT_BOOL", "tensorShape": {}}}}}, {"name": "StatefulPartitionedCall/LogicalAnd_65", "op": "Const", "attr": {"value": {"tensor": {"dtype": "DT_BOOL", "tensorShape": {}}}, "dtype": {"type": "DT_BOOL"}}}, {"name": "StatefulPartitionedCall/assert_equal_131/y", "op": "Const", "attr": {"value": {"tensor": {"dtype": "DT_BOOL", "tensorShape": {}}}, "dtype": {"type": "DT_BOOL"}}}, {"name": "StatefulPartitionedCall/assert_equal_131/All", "op": "Const", "attr": {"dtype": {"type": "DT_BOOL"}, "value": {"tensor": {"dtype": "DT_BOOL", "tensorShape": {}}}}}, {"name": "StatefulPartitionedCall/LogicalAnd_64", "op": "Const", "attr": {"dtype": {"type": "DT_BOOL"}, "value": {"tensor": {"dtype": "DT_BOOL", "tensorShape": {}}}}}, {"name": "StatefulPartitionedCall/assert_equal_129/y", "op": "Const", "attr": {"dtype": {"type": "DT_BOOL"}, "value": {"tensor": {"dtype": "DT_BOOL", "tensorShape": {}}}}}, {"name": "StatefulPartitionedCall/assert_equal_129/All", "op": "Const", "attr": {"value": {"tensor": {"dtype": "DT_BOOL", "tensorShape": {}}}, "dtype": {"type": "DT_BOOL"}}}, {"name": "StatefulPartitionedCall/LogicalAnd_63", "op": "Const", "attr": {"value": {"tensor": {"dtype": "DT_BOOL", "tensorShape": {}}}, "dtype": {"type": "DT_BOOL"}}}, {"name": "StatefulPartitionedCall/assert_equal_127/y", "op": "Const", "attr": {"dtype": {"type": "DT_BOOL"}, "value": {"tensor": {"dtype": "DT_BOOL", "tensorShape": {}}}}}, {"name": "StatefulPartitionedCall/assert_equal_127/All", "op": "Const", "attr": {"dtype": {"type": "DT_BOOL"}, "value": {"tensor": {"dtype": "DT_BOOL", "tensorShape": {}}}}}, {"name": "StatefulPartitionedCall/LogicalAnd_62", "op": "Const", "attr": {"dtype": {"type": "DT_BOOL"}, "value": {"tensor": {"dtype": "DT_BOOL", "tensorShape": {}}}}}, {"name": "StatefulPartitionedCall/assert_equal_125/y", "op": "Const", "attr": {"dtype": {"type": "DT_BOOL"}, "value": {"tensor": {"dtype": "DT_BOOL", "tensorShape": {}}}}}, {"name": "StatefulPartitionedCall/assert_equal_125/All", "op": "Const", "attr": {"value": {"tensor": {"dtype": "DT_BOOL", "tensorShape": {}}}, "dtype": {"type": "DT_BOOL"}}}, {"name": "StatefulPartitionedCall/LogicalAnd_61", "op": "Const", "attr": {"dtype": {"type": "DT_BOOL"}, "value": {"tensor": {"dtype": "DT_BOOL", "tensorShape": {}}}}}, {"name": "StatefulPartitionedCall/assert_equal_123/y", "op": "Const", "attr": {"dtype": {"type": "DT_BOOL"}, "value": {"tensor": {"dtype": "DT_BOOL", "tensorShape": {}}}}}, {"name": "StatefulPartitionedCall/assert_equal_123/All", "op": "Const", "attr": {"dtype": {"type": "DT_BOOL"}, "value": {"tensor": {"dtype": "DT_BOOL", "tensorShape": {}}}}}, {"name": "StatefulPartitionedCall/LogicalAnd_60", "op": "Const", "attr": {"value": {"tensor": {"dtype": "DT_BOOL", "tensorShape": {}}}, "dtype": {"type": "DT_BOOL"}}}, {"name": "StatefulPartitionedCall/assert_equal_121/y", "op": "Const", "attr": {"dtype": {"type": "DT_BOOL"}, "value": {"tensor": {"dtype": "DT_BOOL", "tensorShape": {}}}}}, {"name": "StatefulPartitionedCall/assert_equal_121/All", "op": "Const", "attr": {"dtype": {"type": "DT_BOOL"}, "value": {"tensor": {"dtype": "DT_BOOL", "tensorShape": {}}}}}, {"name": "StatefulPartitionedCall/LogicalAnd_59", "op": "Const", "attr": {"dtype": {"type": "DT_BOOL"}, "value": {"tensor": {"dtype": "DT_BOOL", "tensorShape": {}}}}}, {"name": "StatefulPartitionedCall/assert_equal_119/y", "op": "Const", "attr": {"dtype": {"type": "DT_BOOL"}, "value": {"tensor": {"dtype": "DT_BOOL", "tensorShape": {}}}}}, {"name": "StatefulPartitionedCall/assert_equal_119/All", "op": "Const", "attr": {"dtype": {"type": "DT_BOOL"}, "value": {"tensor": {"dtype": "DT_BOOL", "tensorShape": {}}}}}, {"name": "StatefulPartitionedCall/LogicalAnd_58", "op": "Const", "attr": {"dtype": {"type": "DT_BOOL"}, "value": {"tensor": {"dtype": "DT_BOOL", "tensorShape": {}}}}}, {"name": "StatefulPartitionedCall/assert_equal_117/y", "op": "Const", "attr": {"dtype": {"type": "DT_BOOL"}, "value": {"tensor": {"dtype": "DT_BOOL", "tensorShape": {}}}}}, {"name": "StatefulPartitionedCall/assert_equal_117/All", "op": "Const", "attr": {"value": {"tensor": {"dtype": "DT_BOOL", "tensorShape": {}}}, "dtype": {"type": "DT_BOOL"}}}, {"name": "StatefulPartitionedCall/LogicalAnd_57", "op": "Const", "attr": {"dtype": {"type": "DT_BOOL"}, "value": {"tensor": {"dtype": "DT_BOOL", "tensorShape": {}}}}}, {"name": "StatefulPartitionedCall/assert_equal_115/y", "op": "Const", "attr": {"dtype": {"type": "DT_BOOL"}, "value": {"tensor": {"dtype": "DT_BOOL", "tensorShape": {}}}}}, {"name": "StatefulPartitionedCall/assert_equal_115/All", "op": "Const", "attr": {"dtype": {"type": "DT_BOOL"}, "value": {"tensor": {"dtype": "DT_BOOL", "tensorShape": {}}}}}, {"name": "StatefulPartitionedCall/LogicalAnd_56", "op": "Const", "attr": {"dtype": {"type": "DT_BOOL"}, "value": {"tensor": {"dtype": "DT_BOOL", "tensorShape": {}}}}}, {"name": "StatefulPartitionedCall/assert_equal_113/y", "op": "Const", "attr": {"dtype": {"type": "DT_BOOL"}, "value": {"tensor": {"dtype": "DT_BOOL", "tensorShape": {}}}}}, {"name": "StatefulPartitionedCall/assert_equal_113/All", "op": "Const", "attr": {"value": {"tensor": {"dtype": "DT_BOOL", "tensorShape": {}}}, "dtype": {"type": "DT_BOOL"}}}, {"name": "StatefulPartitionedCall/LogicalAnd_55", "op": "Const", "attr": {"value": {"tensor": {"dtype": "DT_BOOL", "tensorShape": {}}}, "dtype": {"type": "DT_BOOL"}}}, {"name": "StatefulPartitionedCall/assert_equal_111/y", "op": "Const", "attr": {"value": {"tensor": {"dtype": "DT_BOOL", "tensorShape": {}}}, "dtype": {"type": "DT_BOOL"}}}, {"name": "StatefulPartitionedCall/assert_equal_111/All", "op": "Const", "attr": {"dtype": {"type": "DT_BOOL"}, "value": {"tensor": {"dtype": "DT_BOOL", "tensorShape": {}}}}}, {"name": "StatefulPartitionedCall/LogicalAnd_54", "op": "Const", "attr": {"dtype": {"type": "DT_BOOL"}, "value": {"tensor": {"dtype": "DT_BOOL", "tensorShape": {}}}}}, {"name": "StatefulPartitionedCall/assert_equal_109/y", "op": "Const", "attr": {"dtype": {"type": "DT_BOOL"}, "value": {"tensor": {"dtype": "DT_BOOL", "tensorShape": {}}}}}, {"name": "StatefulPartitionedCall/assert_equal_109/All", "op": "Const", "attr": {"value": {"tensor": {"dtype": "DT_BOOL", "tensorShape": {}}}, "dtype": {"type": "DT_BOOL"}}}, {"name": "StatefulPartitionedCall/LogicalAnd_53", "op": "Const", "attr": {"dtype": {"type": "DT_BOOL"}, "value": {"tensor": {"dtype": "DT_BOOL", "tensorShape": {}}}}}, {"name": "StatefulPartitionedCall/assert_equal_107/y", "op": "Const", "attr": {"dtype": {"type": "DT_BOOL"}, "value": {"tensor": {"dtype": "DT_BOOL", "tensorShape": {}}}}}, {"name": "StatefulPartitionedCall/assert_equal_107/All", "op": "Const", "attr": {"value": {"tensor": {"dtype": "DT_BOOL", "tensorShape": {}}}, "dtype": {"type": "DT_BOOL"}}}, {"name": "StatefulPartitionedCall/LogicalAnd_52", "op": "Const", "attr": {"dtype": {"type": "DT_BOOL"}, "value": {"tensor": {"dtype": "DT_BOOL", "tensorShape": {}}}}}, {"name": "StatefulPartitionedCall/assert_equal_105/y", "op": "Const", "attr": {"dtype": {"type": "DT_BOOL"}, "value": {"tensor": {"dtype": "DT_BOOL", "tensorShape": {}}}}}, {"name": "StatefulPartitionedCall/assert_equal_105/All", "op": "Const", "attr": {"dtype": {"type": "DT_BOOL"}, "value": {"tensor": {"dtype": "DT_BOOL", "tensorShape": {}}}}}, {"name": "StatefulPartitionedCall/LogicalAnd_51", "op": "Const", "attr": {"value": {"tensor": {"dtype": "DT_BOOL", "tensorShape": {}}}, "dtype": {"type": "DT_BOOL"}}}, {"name": "StatefulPartitionedCall/assert_equal_103/y", "op": "Const", "attr": {"dtype": {"type": "DT_BOOL"}, "value": {"tensor": {"dtype": "DT_BOOL", "tensorShape": {}}}}}, {"name": "StatefulPartitionedCall/assert_equal_103/All", "op": "Const", "attr": {"dtype": {"type": "DT_BOOL"}, "value": {"tensor": {"dtype": "DT_BOOL", "tensorShape": {}}}}}, {"name": "StatefulPartitionedCall/LogicalAnd_50", "op": "Const", "attr": {"value": {"tensor": {"dtype": "DT_BOOL", "tensorShape": {}}}, "dtype": {"type": "DT_BOOL"}}}, {"name": "StatefulPartitionedCall/assert_equal_101/y", "op": "Const", "attr": {"value": {"tensor": {"dtype": "DT_BOOL", "tensorShape": {}}}, "dtype": {"type": "DT_BOOL"}}}, {"name": "StatefulPartitionedCall/assert_equal_101/All", "op": "Const", "attr": {"dtype": {"type": "DT_BOOL"}, "value": {"tensor": {"dtype": "DT_BOOL", "tensorShape": {}}}}}, {"name": "StatefulPartitionedCall/LogicalAnd_49", "op": "Const", "attr": {"value": {"tensor": {"dtype": "DT_BOOL", "tensorShape": {}}}, "dtype": {"type": "DT_BOOL"}}}, {"name": "StatefulPartitionedCall/assert_equal_99/y", "op": "Const", "attr": {"dtype": {"type": "DT_BOOL"}, "value": {"tensor": {"dtype": "DT_BOOL", "tensorShape": {}}}}}, {"name": "StatefulPartitionedCall/assert_equal_99/All", "op": "Const", "attr": {"dtype": {"type": "DT_BOOL"}, "value": {"tensor": {"dtype": "DT_BOOL", "tensorShape": {}}}}}, {"name": "StatefulPartitionedCall/LogicalAnd_48", "op": "Const", "attr": {"value": {"tensor": {"dtype": "DT_BOOL", "tensorShape": {}}}, "dtype": {"type": "DT_BOOL"}}}, {"name": "StatefulPartitionedCall/assert_equal_97/y", "op": "Const", "attr": {"dtype": {"type": "DT_BOOL"}, "value": {"tensor": {"dtype": "DT_BOOL", "tensorShape": {}}}}}, {"name": "StatefulPartitionedCall/assert_equal_97/All", "op": "Const", "attr": {"value": {"tensor": {"dtype": "DT_BOOL", "tensorShape": {}}}, "dtype": {"type": "DT_BOOL"}}}, {"name": "StatefulPartitionedCall/LogicalAnd_47", "op": "Const", "attr": {"value": {"tensor": {"dtype": "DT_BOOL", "tensorShape": {}}}, "dtype": {"type": "DT_BOOL"}}}, {"name": "StatefulPartitionedCall/assert_equal_95/y", "op": "Const", "attr": {"value": {"tensor": {"dtype": "DT_BOOL", "tensorShape": {}}}, "dtype": {"type": "DT_BOOL"}}}, {"name": "StatefulPartitionedCall/assert_equal_95/All", "op": "Const", "attr": {"dtype": {"type": "DT_BOOL"}, "value": {"tensor": {"dtype": "DT_BOOL", "tensorShape": {}}}}}, {"name": "StatefulPartitionedCall/LogicalAnd_46", "op": "Const", "attr": {"dtype": {"type": "DT_BOOL"}, "value": {"tensor": {"dtype": "DT_BOOL", "tensorShape": {}}}}}, {"name": "StatefulPartitionedCall/assert_equal_93/y", "op": "Const", "attr": {"dtype": {"type": "DT_BOOL"}, "value": {"tensor": {"dtype": "DT_BOOL", "tensorShape": {}}}}}, {"name": "StatefulPartitionedCall/assert_equal_93/All", "op": "Const", "attr": {"value": {"tensor": {"dtype": "DT_BOOL", "tensorShape": {}}}, "dtype": {"type": "DT_BOOL"}}}, {"name": "StatefulPartitionedCall/LogicalAnd_45", "op": "Const", "attr": {"dtype": {"type": "DT_BOOL"}, "value": {"tensor": {"dtype": "DT_BOOL", "tensorShape": {}}}}}, {"name": "StatefulPartitionedCall/assert_equal_91/y", "op": "Const", "attr": {"dtype": {"type": "DT_BOOL"}, "value": {"tensor": {"dtype": "DT_BOOL", "tensorShape": {}}}}}, {"name": "StatefulPartitionedCall/assert_equal_91/All", "op": "Const", "attr": {"dtype": {"type": "DT_BOOL"}, "value": {"tensor": {"dtype": "DT_BOOL", "tensorShape": {}}}}}, {"name": "StatefulPartitionedCall/LogicalAnd_44", "op": "Const", "attr": {"dtype": {"type": "DT_BOOL"}, "value": {"tensor": {"dtype": "DT_BOOL", "tensorShape": {}}}}}, {"name": "StatefulPartitionedCall/assert_equal_89/y", "op": "Const", "attr": {"value": {"tensor": {"dtype": "DT_BOOL", "tensorShape": {}}}, "dtype": {"type": "DT_BOOL"}}}, {"name": "StatefulPartitionedCall/assert_equal_89/All", "op": "Const", "attr": {"dtype": {"type": "DT_BOOL"}, "value": {"tensor": {"dtype": "DT_BOOL", "tensorShape": {}}}}}, {"name": "StatefulPartitionedCall/LogicalAnd_43", "op": "Const", "attr": {"dtype": {"type": "DT_BOOL"}, "value": {"tensor": {"dtype": "DT_BOOL", "tensorShape": {}}}}}, {"name": "StatefulPartitionedCall/assert_equal_87/y", "op": "Const", "attr": {"dtype": {"type": "DT_BOOL"}, "value": {"tensor": {"dtype": "DT_BOOL", "tensorShape": {}}}}}, {"name": "StatefulPartitionedCall/assert_equal_87/All", "op": "Const", "attr": {"dtype": {"type": "DT_BOOL"}, "value": {"tensor": {"dtype": "DT_BOOL", "tensorShape": {}}}}}, {"name": "StatefulPartitionedCall/LogicalAnd_42", "op": "Const", "attr": {"dtype": {"type": "DT_BOOL"}, "value": {"tensor": {"dtype": "DT_BOOL", "tensorShape": {}}}}}, {"name": "StatefulPartitionedCall/assert_equal_85/y", "op": "Const", "attr": {"dtype": {"type": "DT_BOOL"}, "value": {"tensor": {"dtype": "DT_BOOL", "tensorShape": {}}}}}, {"name": "StatefulPartitionedCall/assert_equal_85/All", "op": "Const", "attr": {"dtype": {"type": "DT_BOOL"}, "value": {"tensor": {"dtype": "DT_BOOL", "tensorShape": {}}}}}, {"name": "StatefulPartitionedCall/LogicalAnd_41", "op": "Const", "attr": {"value": {"tensor": {"dtype": "DT_BOOL", "tensorShape": {}}}, "dtype": {"type": "DT_BOOL"}}}, {"name": "StatefulPartitionedCall/assert_equal_83/y", "op": "Const", "attr": {"value": {"tensor": {"dtype": "DT_BOOL", "tensorShape": {}}}, "dtype": {"type": "DT_BOOL"}}}, {"name": "StatefulPartitionedCall/assert_equal_83/All", "op": "Const", "attr": {"dtype": {"type": "DT_BOOL"}, "value": {"tensor": {"dtype": "DT_BOOL", "tensorShape": {}}}}}, {"name": "StatefulPartitionedCall/LogicalAnd_40", "op": "Const", "attr": {"dtype": {"type": "DT_BOOL"}, "value": {"tensor": {"dtype": "DT_BOOL", "tensorShape": {}}}}}, {"name": "StatefulPartitionedCall/assert_equal_81/y", "op": "Const", "attr": {"value": {"tensor": {"dtype": "DT_BOOL", "tensorShape": {}}}, "dtype": {"type": "DT_BOOL"}}}, {"name": "StatefulPartitionedCall/assert_equal_81/All", "op": "Const", "attr": {"value": {"tensor": {"dtype": "DT_BOOL", "tensorShape": {}}}, "dtype": {"type": "DT_BOOL"}}}, {"name": "StatefulPartitionedCall/LogicalAnd_39", "op": "Const", "attr": {"value": {"tensor": {"dtype": "DT_BOOL", "tensorShape": {}}}, "dtype": {"type": "DT_BOOL"}}}, {"name": "StatefulPartitionedCall/assert_equal_79/y", "op": "Const", "attr": {"dtype": {"type": "DT_BOOL"}, "value": {"tensor": {"dtype": "DT_BOOL", "tensorShape": {}}}}}, {"name": "StatefulPartitionedCall/assert_equal_79/All", "op": "Const", "attr": {"dtype": {"type": "DT_BOOL"}, "value": {"tensor": {"dtype": "DT_BOOL", "tensorShape": {}}}}}, {"name": "StatefulPartitionedCall/LogicalAnd_38", "op": "Const", "attr": {"dtype": {"type": "DT_BOOL"}, "value": {"tensor": {"dtype": "DT_BOOL", "tensorShape": {}}}}}, {"name": "StatefulPartitionedCall/assert_equal_77/y", "op": "Const", "attr": {"value": {"tensor": {"dtype": "DT_BOOL", "tensorShape": {}}}, "dtype": {"type": "DT_BOOL"}}}, {"name": "StatefulPartitionedCall/assert_equal_77/All", "op": "Const", "attr": {"dtype": {"type": "DT_BOOL"}, "value": {"tensor": {"dtype": "DT_BOOL", "tensorShape": {}}}}}, {"name": "StatefulPartitionedCall/LogicalAnd_37", "op": "Const", "attr": {"dtype": {"type": "DT_BOOL"}, "value": {"tensor": {"dtype": "DT_BOOL", "tensorShape": {}}}}}, {"name": "StatefulPartitionedCall/assert_equal_75/y", "op": "Const", "attr": {"dtype": {"type": "DT_BOOL"}, "value": {"tensor": {"dtype": "DT_BOOL", "tensorShape": {}}}}}, {"name": "StatefulPartitionedCall/assert_equal_75/All", "op": "Const", "attr": {"value": {"tensor": {"dtype": "DT_BOOL", "tensorShape": {}}}, "dtype": {"type": "DT_BOOL"}}}, {"name": "StatefulPartitionedCall/LogicalAnd_36", "op": "Const", "attr": {"dtype": {"type": "DT_BOOL"}, "value": {"tensor": {"dtype": "DT_BOOL", "tensorShape": {}}}}}, {"name": "StatefulPartitionedCall/assert_equal_73/y", "op": "Const", "attr": {"value": {"tensor": {"dtype": "DT_BOOL", "tensorShape": {}}}, "dtype": {"type": "DT_BOOL"}}}, {"name": "StatefulPartitionedCall/assert_equal_73/All", "op": "Const", "attr": {"dtype": {"type": "DT_BOOL"}, "value": {"tensor": {"dtype": "DT_BOOL", "tensorShape": {}}}}}, {"name": "StatefulPartitionedCall/LogicalAnd_35", "op": "Const", "attr": {"dtype": {"type": "DT_BOOL"}, "value": {"tensor": {"dtype": "DT_BOOL", "tensorShape": {}}}}}, {"name": "StatefulPartitionedCall/assert_equal_71/y", "op": "Const", "attr": {"dtype": {"type": "DT_BOOL"}, "value": {"tensor": {"dtype": "DT_BOOL", "tensorShape": {}}}}}, {"name": "StatefulPartitionedCall/assert_equal_71/All", "op": "Const", "attr": {"dtype": {"type": "DT_BOOL"}, "value": {"tensor": {"dtype": "DT_BOOL", "tensorShape": {}}}}}, {"name": "StatefulPartitionedCall/LogicalAnd_34", "op": "Const", "attr": {"dtype": {"type": "DT_BOOL"}, "value": {"tensor": {"dtype": "DT_BOOL", "tensorShape": {}}}}}, {"name": "StatefulPartitionedCall/assert_equal_69/y", "op": "Const", "attr": {"dtype": {"type": "DT_BOOL"}, "value": {"tensor": {"dtype": "DT_BOOL", "tensorShape": {}}}}}, {"name": "StatefulPartitionedCall/assert_equal_69/All", "op": "Const", "attr": {"dtype": {"type": "DT_BOOL"}, "value": {"tensor": {"dtype": "DT_BOOL", "tensorShape": {}}}}}, {"name": "StatefulPartitionedCall/LogicalAnd_33", "op": "Const", "attr": {"dtype": {"type": "DT_BOOL"}, "value": {"tensor": {"dtype": "DT_BOOL", "tensorShape": {}}}}}, {"name": "StatefulPartitionedCall/assert_equal_67/y", "op": "Const", "attr": {"dtype": {"type": "DT_BOOL"}, "value": {"tensor": {"dtype": "DT_BOOL", "tensorShape": {}}}}}, {"name": "StatefulPartitionedCall/assert_equal_67/All", "op": "Const", "attr": {"value": {"tensor": {"dtype": "DT_BOOL", "tensorShape": {}}}, "dtype": {"type": "DT_BOOL"}}}, {"name": "StatefulPartitionedCall/LogicalAnd_32", "op": "Const", "attr": {"dtype": {"type": "DT_BOOL"}, "value": {"tensor": {"dtype": "DT_BOOL", "tensorShape": {}}}}}, {"name": "StatefulPartitionedCall/assert_equal_65/y", "op": "Const", "attr": {"value": {"tensor": {"dtype": "DT_BOOL", "tensorShape": {}}}, "dtype": {"type": "DT_BOOL"}}}, {"name": "StatefulPartitionedCall/assert_equal_65/All", "op": "Const", "attr": {"dtype": {"type": "DT_BOOL"}, "value": {"tensor": {"dtype": "DT_BOOL", "tensorShape": {}}}}}, {"name": "StatefulPartitionedCall/LogicalAnd_31", "op": "Const", "attr": {"value": {"tensor": {"dtype": "DT_BOOL", "tensorShape": {}}}, "dtype": {"type": "DT_BOOL"}}}, {"name": "StatefulPartitionedCall/assert_equal_63/y", "op": "Const", "attr": {"value": {"tensor": {"dtype": "DT_BOOL", "tensorShape": {}}}, "dtype": {"type": "DT_BOOL"}}}, {"name": "StatefulPartitionedCall/assert_equal_63/All", "op": "Const", "attr": {"value": {"tensor": {"dtype": "DT_BOOL", "tensorShape": {}}}, "dtype": {"type": "DT_BOOL"}}}, {"name": "StatefulPartitionedCall/LogicalAnd_30", "op": "Const", "attr": {"dtype": {"type": "DT_BOOL"}, "value": {"tensor": {"dtype": "DT_BOOL", "tensorShape": {}}}}}, {"name": "StatefulPartitionedCall/assert_equal_61/y", "op": "Const", "attr": {"value": {"tensor": {"dtype": "DT_BOOL", "tensorShape": {}}}, "dtype": {"type": "DT_BOOL"}}}, {"name": "StatefulPartitionedCall/assert_equal_61/All", "op": "Const", "attr": {"dtype": {"type": "DT_BOOL"}, "value": {"tensor": {"dtype": "DT_BOOL", "tensorShape": {}}}}}, {"name": "StatefulPartitionedCall/LogicalAnd_29", "op": "Const", "attr": {"value": {"tensor": {"dtype": "DT_BOOL", "tensorShape": {}}}, "dtype": {"type": "DT_BOOL"}}}, {"name": "StatefulPartitionedCall/assert_equal_59/y", "op": "Const", "attr": {"dtype": {"type": "DT_BOOL"}, "value": {"tensor": {"dtype": "DT_BOOL", "tensorShape": {}}}}}, {"name": "StatefulPartitionedCall/assert_equal_59/All", "op": "Const", "attr": {"dtype": {"type": "DT_BOOL"}, "value": {"tensor": {"dtype": "DT_BOOL", "tensorShape": {}}}}}, {"name": "StatefulPartitionedCall/LogicalAnd_28", "op": "Const", "attr": {"dtype": {"type": "DT_BOOL"}, "value": {"tensor": {"dtype": "DT_BOOL", "tensorShape": {}}}}}, {"name": "StatefulPartitionedCall/assert_equal_57/y", "op": "Const", "attr": {"dtype": {"type": "DT_BOOL"}, "value": {"tensor": {"dtype": "DT_BOOL", "tensorShape": {}}}}}, {"name": "StatefulPartitionedCall/assert_equal_57/All", "op": "Const", "attr": {"value": {"tensor": {"dtype": "DT_BOOL", "tensorShape": {}}}, "dtype": {"type": "DT_BOOL"}}}, {"name": "StatefulPartitionedCall/LogicalAnd_27", "op": "Const", "attr": {"dtype": {"type": "DT_BOOL"}, "value": {"tensor": {"dtype": "DT_BOOL", "tensorShape": {}}}}}, {"name": "StatefulPartitionedCall/assert_equal_55/y", "op": "Const", "attr": {"dtype": {"type": "DT_BOOL"}, "value": {"tensor": {"dtype": "DT_BOOL", "tensorShape": {}}}}}, {"name": "StatefulPartitionedCall/assert_equal_55/All", "op": "Const", "attr": {"dtype": {"type": "DT_BOOL"}, "value": {"tensor": {"dtype": "DT_BOOL", "tensorShape": {}}}}}, {"name": "StatefulPartitionedCall/LogicalAnd_26", "op": "Const", "attr": {"dtype": {"type": "DT_BOOL"}, "value": {"tensor": {"dtype": "DT_BOOL", "tensorShape": {}}}}}, {"name": "StatefulPartitionedCall/assert_equal_53/y", "op": "Const", "attr": {"dtype": {"type": "DT_BOOL"}, "value": {"tensor": {"dtype": "DT_BOOL", "tensorShape": {}}}}}, {"name": "StatefulPartitionedCall/assert_equal_53/All", "op": "Const", "attr": {"dtype": {"type": "DT_BOOL"}, "value": {"tensor": {"dtype": "DT_BOOL", "tensorShape": {}}}}}, {"name": "StatefulPartitionedCall/LogicalAnd_25", "op": "Const", "attr": {"value": {"tensor": {"dtype": "DT_BOOL", "tensorShape": {}}}, "dtype": {"type": "DT_BOOL"}}}, {"name": "StatefulPartitionedCall/assert_equal_51/y", "op": "Const", "attr": {"value": {"tensor": {"dtype": "DT_BOOL", "tensorShape": {}}}, "dtype": {"type": "DT_BOOL"}}}, {"name": "StatefulPartitionedCall/assert_equal_51/All", "op": "Const", "attr": {"dtype": {"type": "DT_BOOL"}, "value": {"tensor": {"dtype": "DT_BOOL", "tensorShape": {}}}}}, {"name": "StatefulPartitionedCall/LogicalAnd_24", "op": "Const", "attr": {"dtype": {"type": "DT_BOOL"}, "value": {"tensor": {"dtype": "DT_BOOL", "tensorShape": {}}}}}, {"name": "StatefulPartitionedCall/assert_equal_49/y", "op": "Const", "attr": {"dtype": {"type": "DT_BOOL"}, "value": {"tensor": {"dtype": "DT_BOOL", "tensorShape": {}}}}}, {"name": "StatefulPartitionedCall/assert_equal_49/All", "op": "Const", "attr": {"dtype": {"type": "DT_BOOL"}, "value": {"tensor": {"dtype": "DT_BOOL", "tensorShape": {}}}}}, {"name": "StatefulPartitionedCall/LogicalAnd_23", "op": "Const", "attr": {"dtype": {"type": "DT_BOOL"}, "value": {"tensor": {"dtype": "DT_BOOL", "tensorShape": {}}}}}, {"name": "StatefulPartitionedCall/assert_equal_47/y", "op": "Const", "attr": {"dtype": {"type": "DT_BOOL"}, "value": {"tensor": {"dtype": "DT_BOOL", "tensorShape": {}}}}}, {"name": "StatefulPartitionedCall/assert_equal_47/All", "op": "Const", "attr": {"dtype": {"type": "DT_BOOL"}, "value": {"tensor": {"dtype": "DT_BOOL", "tensorShape": {}}}}}, {"name": "StatefulPartitionedCall/LogicalAnd_22", "op": "Const", "attr": {"value": {"tensor": {"dtype": "DT_BOOL", "tensorShape": {}}}, "dtype": {"type": "DT_BOOL"}}}, {"name": "StatefulPartitionedCall/assert_equal_45/y", "op": "Const", "attr": {"value": {"tensor": {"dtype": "DT_BOOL", "tensorShape": {}}}, "dtype": {"type": "DT_BOOL"}}}, {"name": "StatefulPartitionedCall/assert_equal_45/All", "op": "Const", "attr": {"dtype": {"type": "DT_BOOL"}, "value": {"tensor": {"dtype": "DT_BOOL", "tensorShape": {}}}}}, {"name": "StatefulPartitionedCall/LogicalAnd_21", "op": "Const", "attr": {"dtype": {"type": "DT_BOOL"}, "value": {"tensor": {"dtype": "DT_BOOL", "tensorShape": {}}}}}, {"name": "StatefulPartitionedCall/assert_equal_43/y", "op": "Const", "attr": {"dtype": {"type": "DT_BOOL"}, "value": {"tensor": {"dtype": "DT_BOOL", "tensorShape": {}}}}}, {"name": "StatefulPartitionedCall/assert_equal_43/All", "op": "Const", "attr": {"value": {"tensor": {"dtype": "DT_BOOL", "tensorShape": {}}}, "dtype": {"type": "DT_BOOL"}}}, {"name": "StatefulPartitionedCall/LogicalAnd_20", "op": "Const", "attr": {"value": {"tensor": {"dtype": "DT_BOOL", "tensorShape": {}}}, "dtype": {"type": "DT_BOOL"}}}, {"name": "StatefulPartitionedCall/assert_equal_41/y", "op": "Const", "attr": {"value": {"tensor": {"dtype": "DT_BOOL", "tensorShape": {}}}, "dtype": {"type": "DT_BOOL"}}}, {"name": "StatefulPartitionedCall/assert_equal_41/All", "op": "Const", "attr": {"dtype": {"type": "DT_BOOL"}, "value": {"tensor": {"dtype": "DT_BOOL", "tensorShape": {}}}}}, {"name": "StatefulPartitionedCall/LogicalAnd_19", "op": "Const", "attr": {"dtype": {"type": "DT_BOOL"}, "value": {"tensor": {"dtype": "DT_BOOL", "tensorShape": {}}}}}, {"name": "StatefulPartitionedCall/assert_equal_39/y", "op": "Const", "attr": {"dtype": {"type": "DT_BOOL"}, "value": {"tensor": {"dtype": "DT_BOOL", "tensorShape": {}}}}}, {"name": "StatefulPartitionedCall/assert_equal_39/All", "op": "Const", "attr": {"dtype": {"type": "DT_BOOL"}, "value": {"tensor": {"dtype": "DT_BOOL", "tensorShape": {}}}}}, {"name": "StatefulPartitionedCall/LogicalAnd_18", "op": "Const", "attr": {"value": {"tensor": {"dtype": "DT_BOOL", "tensorShape": {}}}, "dtype": {"type": "DT_BOOL"}}}, {"name": "StatefulPartitionedCall/assert_equal_37/y", "op": "Const", "attr": {"dtype": {"type": "DT_BOOL"}, "value": {"tensor": {"dtype": "DT_BOOL", "tensorShape": {}}}}}, {"name": "StatefulPartitionedCall/assert_equal_37/All", "op": "Const", "attr": {"value": {"tensor": {"dtype": "DT_BOOL", "tensorShape": {}}}, "dtype": {"type": "DT_BOOL"}}}, {"name": "StatefulPartitionedCall/LogicalAnd_17", "op": "Const", "attr": {"dtype": {"type": "DT_BOOL"}, "value": {"tensor": {"dtype": "DT_BOOL", "tensorShape": {}}}}}, {"name": "StatefulPartitionedCall/assert_equal_35/y", "op": "Const", "attr": {"value": {"tensor": {"dtype": "DT_BOOL", "tensorShape": {}}}, "dtype": {"type": "DT_BOOL"}}}, {"name": "StatefulPartitionedCall/assert_equal_35/All", "op": "Const", "attr": {"dtype": {"type": "DT_BOOL"}, "value": {"tensor": {"dtype": "DT_BOOL", "tensorShape": {}}}}}, {"name": "StatefulPartitionedCall/LogicalAnd_16", "op": "Const", "attr": {"value": {"tensor": {"dtype": "DT_BOOL", "tensorShape": {}}}, "dtype": {"type": "DT_BOOL"}}}, {"name": "StatefulPartitionedCall/assert_equal_33/y", "op": "Const", "attr": {"dtype": {"type": "DT_BOOL"}, "value": {"tensor": {"dtype": "DT_BOOL", "tensorShape": {}}}}}, {"name": "StatefulPartitionedCall/assert_equal_33/All", "op": "Const", "attr": {"dtype": {"type": "DT_BOOL"}, "value": {"tensor": {"dtype": "DT_BOOL", "tensorShape": {}}}}}, {"name": "StatefulPartitionedCall/LogicalAnd_15", "op": "Const", "attr": {"dtype": {"type": "DT_BOOL"}, "value": {"tensor": {"dtype": "DT_BOOL", "tensorShape": {}}}}}, {"name": "StatefulPartitionedCall/assert_equal_31/y", "op": "Const", "attr": {"value": {"tensor": {"dtype": "DT_BOOL", "tensorShape": {}}}, "dtype": {"type": "DT_BOOL"}}}, {"name": "StatefulPartitionedCall/assert_equal_31/All", "op": "Const", "attr": {"value": {"tensor": {"dtype": "DT_BOOL", "tensorShape": {}}}, "dtype": {"type": "DT_BOOL"}}}, {"name": "StatefulPartitionedCall/LogicalAnd_14", "op": "Const", "attr": {"dtype": {"type": "DT_BOOL"}, "value": {"tensor": {"dtype": "DT_BOOL", "tensorShape": {}}}}}, {"name": "StatefulPartitionedCall/assert_equal_29/y", "op": "Const", "attr": {"value": {"tensor": {"dtype": "DT_BOOL", "tensorShape": {}}}, "dtype": {"type": "DT_BOOL"}}}, {"name": "StatefulPartitionedCall/assert_equal_29/All", "op": "Const", "attr": {"value": {"tensor": {"dtype": "DT_BOOL", "tensorShape": {}}}, "dtype": {"type": "DT_BOOL"}}}, {"name": "StatefulPartitionedCall/LogicalAnd_13", "op": "Const", "attr": {"dtype": {"type": "DT_BOOL"}, "value": {"tensor": {"dtype": "DT_BOOL", "tensorShape": {}}}}}, {"name": "StatefulPartitionedCall/assert_equal_27/y", "op": "Const", "attr": {"value": {"tensor": {"dtype": "DT_BOOL", "tensorShape": {}}}, "dtype": {"type": "DT_BOOL"}}}, {"name": "StatefulPartitionedCall/assert_equal_27/All", "op": "Const", "attr": {"value": {"tensor": {"dtype": "DT_BOOL", "tensorShape": {}}}, "dtype": {"type": "DT_BOOL"}}}, {"name": "StatefulPartitionedCall/LogicalAnd_12", "op": "Const", "attr": {"dtype": {"type": "DT_BOOL"}, "value": {"tensor": {"dtype": "DT_BOOL", "tensorShape": {}}}}}, {"name": "StatefulPartitionedCall/assert_equal_25/y", "op": "Const", "attr": {"dtype": {"type": "DT_BOOL"}, "value": {"tensor": {"dtype": "DT_BOOL", "tensorShape": {}}}}}, {"name": "StatefulPartitionedCall/assert_equal_25/All", "op": "Const", "attr": {"dtype": {"type": "DT_BOOL"}, "value": {"tensor": {"dtype": "DT_BOOL", "tensorShape": {}}}}}, {"name": "StatefulPartitionedCall/LogicalAnd_11", "op": "Const", "attr": {"value": {"tensor": {"dtype": "DT_BOOL", "tensorShape": {}}}, "dtype": {"type": "DT_BOOL"}}}, {"name": "StatefulPartitionedCall/assert_equal_23/y", "op": "Const", "attr": {"dtype": {"type": "DT_BOOL"}, "value": {"tensor": {"dtype": "DT_BOOL", "tensorShape": {}}}}}, {"name": "StatefulPartitionedCall/assert_equal_23/All", "op": "Const", "attr": {"dtype": {"type": "DT_BOOL"}, "value": {"tensor": {"dtype": "DT_BOOL", "tensorShape": {}}}}}, {"name": "StatefulPartitionedCall/LogicalAnd_10", "op": "Const", "attr": {"value": {"tensor": {"dtype": "DT_BOOL", "tensorShape": {}}}, "dtype": {"type": "DT_BOOL"}}}, {"name": "StatefulPartitionedCall/assert_equal_21/y", "op": "Const", "attr": {"value": {"tensor": {"dtype…
Call/zeros_51", "shape": [], "dtype": "int32"}, {"name": "StatefulPartitionedCall/onnx_tf_prefix_/mobilevit/encoder/layer.4/Transpose_2/perm", "shape": [4], "dtype": "int32"}, {"name": "StatefulPartitionedCall/onnx_tf_prefix_/mobilevit/encoder/layer.4/Concat_4", "shape": [4], "dtype": "int32"}, {"name": "StatefulPartitionedCall/Where_52", "shape": [0, 1], "dtype": "int32"}, {"name": "StatefulPartitionedCall/Cast_202", "shape": [1], "dtype": "int32"}, {"name": "StatefulPartitionedCall/GatherV2_52", "shape": [0], "dtype": "int32"}, {"name": "StatefulPartitionedCall/zeros_52", "shape": [], "dtype": "int32"}, {"name": "StatefulPartitionedCall/onnx_tf_prefix_/mobilevit/encoder/layer.4/Transpose_3/perm", "shape": [4], "dtype": "int32"}, {"name": "StatefulPartitionedCall/onnx_tf_prefix_/mobilevit/encoder/layer.4/Concat_5", "shape": [4], "dtype": "int32"}, {"name": "StatefulPartitionedCall/Where_53", "shape": [0, 1], "dtype": "int32"}, {"name": "StatefulPartitionedCall/Cast_203", "shape": [1], "dtype": "int32"}, {"name": "StatefulPartitionedCall/GatherV2_53", "shape": [0], "dtype": "int32"}, {"name": "StatefulPartitionedCall/zeros_53", "shape": [], "dtype": "int32"}, {"name": "StatefulPartitionedCall/transpose_97/perm", "shape": [4], "dtype": "int32"}, {"name": "StatefulPartitionedCall/split_25", "shape": [1, 1, 144, 96], "dtype": "float32"}, {"name": "unknown_211", "shape": [96], "dtype": "float32"}, {"name": "StatefulPartitionedCall/transpose_98/perm", "shape": [4], "dtype": "int32"}, {"name": "StatefulPartitionedCall/onnx_tf_prefix_/mobilevit/encoder/layer.4/Concat_6/axis", "shape": [], "dtype": "int32"}, {"name": "StatefulPartitionedCall/Const_67", "shape": [4, 2], "dtype": "int32"}, {"name": "StatefulPartitionedCall/transpose_100/perm", "shape": [4], "dtype": "int32"}, {"name": "StatefulPartitionedCall/split_26", "shape": [3, 3, 192, 96], "dtype": "float32"}, {"name": "unknown_213", "shape": [96], "dtype": "float32"}, {"name": "StatefulPartitionedCall/transpose_101/perm", "shape": [4], "dtype": "int32"}, {"name": "StatefulPartitionedCall/transpose_103/perm", "shape": [4], "dtype": "int32"}, {"name": "StatefulPartitionedCall/split_27", "shape": [1, 1, 96, 384], "dtype": "float32"}, {"name": "unknown_215", "shape": [384], "dtype": "float32"}, {"name": "StatefulPartitionedCall/transpose_104/perm", "shape": [4], "dtype": "int32"}, {"name": "StatefulPartitionedCall/onnx_tf_prefix_/mobilevit/ReduceMean/reduction_indices", "shape": [2], "dtype": "int32"}, {"name": "StatefulPartitionedCall/transpose_105", "shape": [384, 64], "dtype": "float32"}, {"name": "StatefulPartitionedCall/mul_1", "shape": [64], "dtype": "float32"}, {"name": "StatefulPartitionedCall/LogicalAnd_71", "shape": [], "dtype": "bool"}, {"name": "StatefulPartitionedCall/assert_equal_143/y", "shape": [], "dtype": "bool"}, {"name": "StatefulPartitionedCall/assert_equal_143/All", "shape": [], "dtype": "bool"}, {"name": "StatefulPartitionedCall/LogicalAnd_70", "shape": [], "dtype": "bool"}, {"name": "StatefulPartitionedCall/assert_equal_141/y", "shape": [], "dtype": "bool"}, {"name": "StatefulPartitionedCall/assert_equal_141/All", "shape": [], "dtype": "bool"}, {"name": "StatefulPartitionedCall/LogicalAnd_69", "shape": [], "dtype": "bool"}, {"name": "StatefulPartitionedCall/assert_equal_139/y", "shape": [], "dtype": "bool"}, {"name": "StatefulPartitionedCall/assert_equal_139/All", "shape": [], "dtype": "bool"}, {"name": "StatefulPartitionedCall/LogicalAnd_68", "shape": [], "dtype": "bool"}, {"name": "StatefulPartitionedCall/assert_equal_137/y", "shape": [], "dtype": "bool"}, {"name": "StatefulPartitionedCall/assert_equal_137/All", "shape": [], "dtype": "bool"}, {"name": "StatefulPartitionedCall/LogicalAnd_67", "shape": [], "dtype": "bool"}, {"name": "StatefulPartitionedCall/assert_equal_135/y", "shape": [], "dtype": "bool"}, {"name": "StatefulPartitionedCall/assert_equal_135/All", "shape": [], "dtype": "bool"}, {"name": "StatefulPartitionedCall/LogicalAnd_66", "shape": [], "dtype": "bool"}, {"name": "StatefulPartitionedCall/assert_equal_133/y", "shape": [], "dtype": "bool"}, {"name": "StatefulPartitionedCall/assert_equal_133/All", "shape": [], "dtype": "bool"}, {"name": "StatefulPartitionedCall/LogicalAnd_65", "shape": [], "dtype": "bool"}, {"name": "StatefulPartitionedCall/assert_equal_131/y", "shape": [], "dtype": "bool"}, {"name": "StatefulPartitionedCall/assert_equal_131/All", "shape": [], "dtype": "bool"}, {"name": "StatefulPartitionedCall/LogicalAnd_64", "shape": [], "dtype": "bool"}, {"name": "StatefulPartitionedCall/assert_equal_129/y", "shape": [], "dtype": "bool"}, {"name": "StatefulPartitionedCall/assert_equal_129/All", "shape": [], "dtype": "bool"}, {"name": "StatefulPartitionedCall/LogicalAnd_63", "shape": [], "dtype": "bool"}, {"name": "StatefulPartitionedCall/assert_equal_127/y", "shape": [], "dtype": "bool"}, {"name": "StatefulPartitionedCall/assert_equal_127/All", "shape": [], "dtype": "bool"}, {"name": "StatefulPartitionedCall/LogicalAnd_62", "shape": [], "dtype": "bool"}, {"name": "StatefulPartitionedCall/assert_equal_125/y", "shape": [], "dtype": "bool"}, {"name": "StatefulPartitionedCall/assert_equal_125/All", "shape": [], "dtype": "bool"}, {"name": "StatefulPartitionedCall/LogicalAnd_61", "shape": [], "dtype": "bool"}, {"name": "StatefulPartitionedCall/assert_equal_123/y", "shape": [], "dtype": "bool"}, {"name": "StatefulPartitionedCall/assert_equal_123/All", "shape": [], "dtype": "bool"}, {"name": "StatefulPartitionedCall/LogicalAnd_60", "shape": [], "dtype": "bool"}, {"name": "StatefulPartitionedCall/assert_equal_121/y", "shape": [], "dtype": "bool"}, {"name": "StatefulPartitionedCall/assert_equal_121/All", "shape": [], "dtype": "bool"}, {"name": "StatefulPartitionedCall/LogicalAnd_59", "shape": [], "dtype": "bool"}, {"name": "StatefulPartitionedCall/assert_equal_119/y", "shape": [], "dtype": "bool"}, {"name": "StatefulPartitionedCall/assert_equal_119/All", "shape": [], "dtype": "bool"}, {"name": "StatefulPartitionedCall/LogicalAnd_58", "shape": [], "dtype": "bool"}, {"name": "StatefulPartitionedCall/assert_equal_117/y", "shape": [], "dtype": "bool"}, {"name": "StatefulPartitionedCall/assert_equal_117/All", "shape": [], "dtype": "bool"}, {"name": "StatefulPartitionedCall/LogicalAnd_57", "shape": [], "dtype": "bool"}, {"name": "StatefulPartitionedCall/assert_equal_115/y", "shape": [], "dtype": "bool"}, {"name": "StatefulPartitionedCall/assert_equal_115/All", "shape": [], "dtype": "bool"}, {"name": "StatefulPartitionedCall/LogicalAnd_56", "shape": [], "dtype": "bool"}, {"name": "StatefulPartitionedCall/assert_equal_113/y", "shape": [], "dtype": "bool"}, {"name": "StatefulPartitionedCall/assert_equal_113/All", "shape": [], "dtype": "bool"}, {"name": "StatefulPartitionedCall/LogicalAnd_55", "shape": [], "dtype": "bool"}, {"name": "StatefulPartitionedCall/assert_equal_111/y", "shape": [], "dtype": "bool"}, {"name": "StatefulPartitionedCall/assert_equal_111/All", "shape": [], "dtype": "bool"}, {"name": "StatefulPartitionedCall/LogicalAnd_54", "shape": [], "dtype": "bool"}, {"name": "StatefulPartitionedCall/assert_equal_109/y", "shape": [], "dtype": "bool"}, {"name": "StatefulPartitionedCall/assert_equal_109/All", "shape": [], "dtype": "bool"}, {"name": "StatefulPartitionedCall/LogicalAnd_53", "shape": [], "dtype": "bool"}, {"name": "StatefulPartitionedCall/assert_equal_107/y", "shape": [], "dtype": "bool"}, {"name": "StatefulPartitionedCall/assert_equal_107/All", "shape": [], "dtype": "bool"}, {"name": "StatefulPartitionedCall/LogicalAnd_52", "shape": [], "dtype": "bool"}, {"name": "StatefulPartitionedCall/assert_equal_105/y", "shape": [], "dtype": "bool"}, {"name": "StatefulPartitionedCall/assert_equal_105/All", "shape": [], "dtype": "bool"}, {"name": "StatefulPartitionedCall/LogicalAnd_51", "shape": [], "dtype": "bool"}, {"name": "StatefulPartitionedCall/assert_equal_103/y", "shape": [], "dtype": "bool"}, {"name": "StatefulPartitionedCall/assert_equal_103/All", "shape": [], "dtype": "bool"}, {"name": "StatefulPartitionedCall/LogicalAnd_50", "shape": [], "dtype": "bool"}, {"name": "StatefulPartitionedCall/assert_equal_101/y", "shape": [], "dtype": "bool"}, {"name": "StatefulPartitionedCall/assert_equal_101/All", "shape": [], "dtype": "bool"}, {"name": "StatefulPartitionedCall/LogicalAnd_49", "shape": [], "dtype": "bool"}, {"name": "StatefulPartitionedCall/assert_equal_99/y", "shape": [], "dtype": "bool"}, {"name": "StatefulPartitionedCall/assert_equal_99/All", "shape": [], "dtype": "bool"}, {"name": "StatefulPartitionedCall/LogicalAnd_48", "shape": [], "dtype": "bool"}, {"name": "StatefulPartitionedCall/assert_equal_97/y", "shape": [], "dtype": "bool"}, {"name": "StatefulPartitionedCall/assert_equal_97/All", "shape": [], "dtype": "bool"}, {"name": "StatefulPartitionedCall/LogicalAnd_47", "shape": [], "dtype": "bool"}, {"name": "StatefulPartitionedCall/assert_equal_95/y", "shape": [], "dtype": "bool"}, {"name": "StatefulPartitionedCall/assert_equal_95/All", "shape": [], "dtype": "bool"}, {"name": "StatefulPartitionedCall/LogicalAnd_46", "shape": [], "dtype": "bool"}, {"name": "StatefulPartitionedCall/assert_equal_93/y", "shape": [], "dtype": "bool"}, {"name": "StatefulPartitionedCall/assert_equal_93/All", "shape": [], "dtype": "bool"}, {"name": "StatefulPartitionedCall/LogicalAnd_45", "shape": [], "dtype": "bool"}, {"name": "StatefulPartitionedCall/assert_equal_91/y", "shape": [], "dtype": "bool"}, {"name": "StatefulPartitionedCall/assert_equal_91/All", "shape": [], "dtype": "bool"}, {"name": "StatefulPartitionedCall/LogicalAnd_44", "shape": [], "dtype": "bool"}, {"name": "StatefulPartitionedCall/assert_equal_89/y", "shape": [], "dtype": "bool"}, {"name": "StatefulPartitionedCall/assert_equal_89/All", "shape": [], "dtype": "bool"}, {"name": "StatefulPartitionedCall/LogicalAnd_43", "shape": [], "dtype": "bool"}, {"name": "StatefulPartitionedCall/assert_equal_87/y", "shape": [], "dtype": "bool"}, {"name": "StatefulPartitionedCall/assert_equal_87/All", "shape": [], "dtype": "bool"}, {"name": "StatefulPartitionedCall/LogicalAnd_42", "shape": [], "dtype": "bool"}, {"name": "StatefulPartitionedCall/assert_equal_85/y", "shape": [], "dtype": "bool"}, {"name": "StatefulPartitionedCall/assert_equal_85/All", "shape": [], "dtype": "bool"}, {"name": "StatefulPartitionedCall/LogicalAnd_41", "shape": [], "dtype": "bool"}, {"name": "StatefulPartitionedCall/assert_equal_83/y", "shape": [], "dtype": "bool"}, {"name": "StatefulPartitionedCall/assert_equal_83/All", "shape": [], "dtype": "bool"}, {"name": "StatefulPartitionedCall/LogicalAnd_40", "shape": [], "dtype": "bool"}, {"name": "StatefulPartitionedCall/assert_equal_81/y", "shape": [], "dtype": "bool"}, {"name": "StatefulPartitionedCall/assert_equal_81/All", "shape": [], "dtype": "bool"}, {"name": "StatefulPartitionedCall/LogicalAnd_39", "shape": [], "dtype": "bool"}, {"name": "StatefulPartitionedCall/assert_equal_79/y", "shape": [], "dtype": "bool"}, {"name": "StatefulPartitionedCall/assert_equal_79/All", "shape": [], "dtype": "bool"}, {"name": "StatefulPartitionedCall/LogicalAnd_38", "shape": [], "dtype": "bool"}, {"name": "StatefulPartitionedCall/assert_equal_77/y", "shape": [], "dtype": "bool"}, {"name": "StatefulPartitionedCall/assert_equal_77/All", "shape": [], "dtype": "bool"}, {"name": "StatefulPartitionedCall/LogicalAnd_37", "shape": [], "dtype": "bool"}, {"name": "StatefulPartitionedCall/assert_equal_75/y", "shape": [], "dtype": "bool"}, {"name": "StatefulPartitionedCall/assert_equal_75/All", "shape": [], "dtype": "bool"}, {"name": "StatefulPartitionedCall/LogicalAnd_36", "shape": [], "dtype": "bool"}, {"name": "StatefulPartitionedCall/assert_equal_73/y", "shape": [], "dtype": "bool"}, {"name": "StatefulPartitionedCall/assert_equal_73/All", "shape": [], "dtype": "bool"}, {"name": "StatefulPartitionedCall/LogicalAnd_35", "shape": [], "dtype": "bool"}, {"name": "StatefulPartitionedCall/assert_equal_71/y", "shape": [], "dtype": "bool"}, {"name": "StatefulPartitionedCall/assert_equal_71/All", "shape": [], "dtype": "bool"}, {"name": "StatefulPartitionedCall/LogicalAnd_34", "shape": [], "dtype": "bool"}, {"name": "StatefulPartitionedCall/assert_equal_69/y", "shape": [], "dtype": "bool"}, {"name": "StatefulPartitionedCall/assert_equal_69/All", "shape": [], "dtype": "bool"}, {"name": "StatefulPartitionedCall/LogicalAnd_33", "shape": [], "dtype": "bool"}, {"name": "StatefulPartitionedCall/assert_equal_67/y", "shape": [], "dtype": "bool"}, {"name": "StatefulPartitionedCall/assert_equal_67/All", "shape": [], "dtype": "bool"}, {"name": "StatefulPartitionedCall/LogicalAnd_32", "shape": [], "dtype": "bool"}, {"name": "StatefulPartitionedCall/assert_equal_65/y", "shape": [], "dtype": "bool"}, {"name": "StatefulPartitionedCall/assert_equal_65/All", "shape": [], "dtype": "bool"}, {"name": "StatefulPartitionedCall/LogicalAnd_31", "shape": [], "dtype": "bool"}, {"name": "StatefulPartitionedCall/assert_equal_63/y", "shape": [], "dtype": "bool"}, {"name": "StatefulPartitionedCall/assert_equal_63/All", "shape": [], "dtype": "bool"}, {"name": "StatefulPartitionedCall/LogicalAnd_30", "shape": [], "dtype": "bool"}, {"name": "StatefulPartitionedCall/assert_equal_61/y", "shape": [], "dtype": "bool"}, {"name": "StatefulPartitionedCall/assert_equal_61/All", "shape": [], "dtype": "bool"}, {"name": "StatefulPartitionedCall/LogicalAnd_29", "shape": [], "dtype": "bool"}, {"name": "StatefulPartitionedCall/assert_equal_59/y", "shape": [], "dtype": "bool"}, {"name": "StatefulPartitionedCall/assert_equal_59/All", "shape": [], "dtype": "bool"}, {"name": "StatefulPartitionedCall/LogicalAnd_28", "shape": [], "dtype": "bool"}, {"name": "StatefulPartitionedCall/assert_equal_57/y", "shape": [], "dtype": "bool"}, {"name": "StatefulPartitionedCall/assert_equal_57/All", "shape": [], "dtype": "bool"}, {"name": "StatefulPartitionedCall/LogicalAnd_27", "shape": [], "dtype": "bool"}, {"name": "StatefulPartitionedCall/assert_equal_55/y", "shape": [], "dtype": "bool"}, {"name": "StatefulPartitionedCall/assert_equal_55/All", "shape": [], "dtype": "bool"}, {"name": "StatefulPartitionedCall/LogicalAnd_26", "shape": [], "dtype": "bool"}, {"name": "StatefulPartitionedCall/assert_equal_53/y", "shape": [], "dtype": "bool"}, {"name": "StatefulPartitionedCall/assert_equal_53/All", "shape": [], "dtype": "bool"}, {"name": "StatefulPartitionedCall/LogicalAnd_25", "shape": [], "dtype": "bool"}, {"name": "StatefulPartitionedCall/assert_equal_51/y", "shape": [], "dtype": "bool"}, {"name": "StatefulPartitionedCall/assert_equal_51/All", "shape": [], "dtype": "bool"}, {"name": "StatefulPartitionedCall/LogicalAnd_24", "shape": [], "dtype": "bool"}, {"name": "StatefulPartitionedCall/assert_equal_49/y", "shape": [], "dtype": "bool"}, {"name": "StatefulPartitionedCall/assert_equal_49/All", "shape": [], "dtype": "bool"}, {"name": "StatefulPartitionedCall/LogicalAnd_23", "shape": [], "dtype": "bool"}, {"name": "StatefulPartitionedCall/assert_equal_47/y", "shape": [], "dtype": "bool"}, {"name": "StatefulPartitionedCall/assert_equal_47/All", "shape": [], "dtype": "bool"}, {"name": "StatefulPartitionedCall/LogicalAnd_22", "shape": [], "dtype": "bool"}, {"name": "StatefulPartitionedCall/assert_equal_45/y", "shape": [], "dtype": "bool"}, {"name": "StatefulPartitionedCall/assert_equal_45/All", "shape": [], "dtype": "bool"}, {"name": "StatefulPartitionedCall/LogicalAnd_21", "shape": [], "dtype": "bool"}, {"name": "StatefulPartitionedCall/assert_equal_43/y", "shape": [], "dtype": "bool"}, {"name": "StatefulPartitionedCall/assert_equal_43/All", "shape": [], "dtype": "bool"}, {"name": "StatefulPartitionedCall/LogicalAnd_20", "shape": [], "dtype": "bool"}, {"name": "StatefulPartitionedCall/assert_equal_41/y", "shape": [], "dtype": "bool"}, {"name": "StatefulPartitionedCall/assert_equal_41/All", "shape": [], "dtype": "bool"}, {"name": "StatefulPartitionedCall/LogicalAnd_19", "shape": [], "dtype": "bool"}, {"name": "StatefulPartitionedCall/assert_equal_39/y", "shape": [], "dtype": "bool"}, {"name": "StatefulPartitionedCall/assert_equal_39/All", "shape": [], "dtype": "bool"}, {"name": "StatefulPartitionedCall/LogicalAnd_18", "shape": [], "dtype": "bool"}, {"name": "StatefulPartitionedCall/assert_equal_37/y", "shape": [], "dtype": "bool"}, {"name": "StatefulPartitionedCall/assert_equal_37/All", "shape": [], "dtype": "bool"}, {"name": "StatefulPartitionedCall/LogicalAnd_17", "shape": [], "dtype": "bool"}, {"name": "StatefulPartitionedCall/assert_equal_35/y", "shape": [], "dtype": "bool"}, {"name": "StatefulPartitionedCall/assert_equal_35/All", "shape": [], "dtype": "bool"}, {"name": "StatefulPartitionedCall/LogicalAnd_16", "shape": [], "dtype": "bool"}, {"name": "StatefulPartitionedCall/assert_equal_33/y", "shape": [], "dtype": "bool"}, {"name": "StatefulPartitionedCall/assert_equal_33/All", "shape": [], "dtype": "bool"}, {"name": "StatefulPartitionedCall/LogicalAnd_15", "shape": [], "dtype": "bool"}, {"name": "StatefulPartitionedCall/assert_equal_31/y", "shape": [], "dtype": "bool"}, {"name": "StatefulPartitionedCall/assert_equal_31/All", "shape": [], "dtype": "bool"}, {"name": "StatefulPartitionedCall/LogicalAnd_14", "shape": [], "dtype": "bool"}, {"name": "StatefulPartitionedCall/assert_equal_29/y", "shape": [], "dtype": "bool"}, {"name": "StatefulPartitionedCall/assert_equal_29/All", "shape": [], "dtype": "bool"}, {"name": "StatefulPartitionedCall/LogicalAnd_13", "shape": [], "dtype": "bool"}, {"name": "StatefulPartitionedCall/assert_equal_27/y", "shape": [], "dtype": "bool"}, {"name": "StatefulPartitionedCall/assert_equal_27/All", "shape": [], "dtype": "bool"}, {"name": "StatefulPartitionedCall/LogicalAnd_12", "shape": [], "dtype": "bool"}, {"name": "StatefulPartitionedCall/assert_equal_25/y", "shape": [], "dtype": "bool"}, {"name": "StatefulPartitionedCall/assert_equal_25/All", "shape": [], "dtype": "bool"}, {"name": "StatefulPartitionedCall/LogicalAnd_11", "shape": [], "dtype": "bool"}, {"name": "StatefulPartitionedCall/assert_equal_23/y", "shape": [], "dtype": "bool"}, {"name": "StatefulPartitionedCall/assert_equal_23/All", "shape": [], "dtype": "bool"}, {"name": "StatefulPartitionedCall/LogicalAnd_10", "shape": [], "dtype": "bool"}, {"name": "StatefulPartitionedCall/assert_equal_21/y", "shape": [], "dtype": "bool"}, {"name": "StatefulPartitionedCall/assert_equal_21/All", "shape": [], "dtype": "bool"}, {"name": "StatefulPartitionedCall/LogicalAnd_9", "shape": [], "dtype": "bool"}, {"name": "StatefulPartitionedCall/assert_equal_19/y", "shape": [], "dtype": "bool"}, {"name": "StatefulPartitionedCall/assert_equal_19/All", "shape": [], "dtype": "bool"}, {"name": "StatefulPartitionedCall/LogicalAnd_8", "shape": [], "dtype": "bool"}, {"name": "StatefulPartitionedCall/assert_equal_17/y", "shape": [], "dtype": "bool"}, {"name": "StatefulPartitionedCall/assert_equal_17/All", "shape": [], "dtype": "bool"}, {"name": "StatefulPartitionedCall/LogicalAnd_7", "shape": [], "dtype": "bool"}, {"name": "StatefulPartitionedCall/assert_equal_15/y", "shape": [], "dtype": "bool"}, {"name": "StatefulPartitionedCall/assert_equal_15/All", "shape": [], "dtype": "bool"}, {"name": "StatefulPartitionedCall/LogicalAnd_6", "shape": [], "dtype": "bool"}, {"name": "StatefulPartitionedCall/assert_equal_13/y", "shape": [], "dtype": "bool"}, {"name": "StatefulPartitionedCall/assert_equal_13/All", "shape": [], "dtype": "bool"}, {"name": "StatefulPartitionedCall/LogicalAnd_5", "shape": [], "dtype": "bool"}, {"name": "StatefulPartitionedCall/assert_equal_11/y", "shape": [], "dtype": "bool"}, {"name": "StatefulPartitionedCall/assert_equal_11/All", "shape": [], "dtype": "bool"}, {"name": "StatefulPartitionedCall/LogicalAnd_4", "shape": [], "dtype": "bool"}, {"name": "StatefulPartitionedCall/assert_equal_9/y", "shape": [], "dtype": "bool"}, {"name": "StatefulPartitionedCall/assert_equal_9/All", "shape": [], "dtype": "bool"}, {"name": "StatefulPartitionedCall/LogicalAnd_3", "shape": [], "dtype": "bool"}, {"name": "StatefulPartitionedCall/assert_equal_7/y", "shape": [], "dtype": "bool"}, {"name": "StatefulPartitionedCall/assert_equal_7/All", "shape": [], "dtype": "bool"}, {"name": "StatefulPartitionedCall/LogicalAnd_2", "shape": [], "dtype": "bool"}, {"name": "StatefulPartitionedCall/assert_equal_5/y", "shape": [], "dtype": "bool"}, {"name": "StatefulPartitionedCall/assert_equal_5/All", "shape": [], "dtype": "bool"}, {"name": "StatefulPartitionedCall/LogicalAnd_1", "shape": [], "dtype": "bool"}, {"name": "StatefulPartitionedCall/assert_equal_3/y", "shape": [], "dtype": "bool"}, {"name": "StatefulPartitionedCall/assert_equal_3/All", "shape": [], "dtype": "bool"}, {"name": "StatefulPartitionedCall/assert_equal_1/Assert/AssertGuard/pivot_t/_226", "shape": [], "dtype": "bool"}, {"name": "StatefulPartitionedCall/LogicalAnd", "shape": [], "dtype": "bool"}, {"name": "StatefulPartitionedCall/assert_equal_1/y", "shape": [], "dtype": "bool"}, {"name": "StatefulPartitionedCall/assert_equal_1/All", "shape": [], "dtype": "bool"}, {"name": "StatefulPartitionedCall/assert_equal_3/Assert/AssertGuard/pivot_t/_236", "shape": [], "dtype": "bool"}, {"name": "Func/StatefulPartitionedCall/assert_equal_3/Assert/AssertGuard/then/_232/output/_958", "shape": [], "dtype": "bool"}, {"name": "StatefulPartitionedCall/assert_equal_5/Assert/AssertGuard/pivot_t/_246", "shape": [], "dtype": "bool"}, {"name": "StatefulPartitionedCall/onnx_tf_prefix_/mobilevit/encoder/layer.2/transformer/layer.0/attention/attention/Concat", "shape": [4], "dtype": "int32"}, {"name": "StatefulPartitionedCall/Where_3", "shape": [0, 1], "dtype": "int32"}, {"name": "StatefulPartitionedCall/GatherV2_3", "shape": [0], "dtype": "int32"}, {"name": "Func/StatefulPartitionedCall/assert_equal_5/Assert/AssertGuard/then/_242/output/_970", "shape": [], "dtype": "bool"}, {"name": "StatefulPartitionedCall/assert_equal_7/Assert/AssertGuard/pivot_t/_256", "shape": [], "dtype": "bool"}, {"name": "Func/StatefulPartitionedCall/assert_equal_7/Assert/AssertGuard/then/_252/output/_982", "shape": [], "dtype": "bool"}, {"name": "StatefulPartitionedCall/assert_equal_9/Assert/AssertGuard/pivot_t/_266", "shape": [], "dtype": "bool"}, {"name": "StatefulPartitionedCall/onnx_tf_prefix_/mobilevit/encoder/layer.2/transformer/layer.0/attention/attention/Concat_1", "shape": [4], "dtype": "int32"}, {"name": "StatefulPartitionedCall/Where_4", "shape": [0, 1], "dtype": "int32"}, {"name": "StatefulPartitionedCall/GatherV2_4", "shape": [0], "dtype": "int32"}, {"name": "Func/StatefulPartitionedCall/assert_equal_9/Assert/AssertGuard/then/_262/output/_994", "shape": [], "dtype": "bool"}, {"name": "StatefulPartitionedCall/assert_equal_11/Assert/AssertGuard/pivot_t/_276", "shape": [], "dtype": "bool"}, {"name": "Func/StatefulPartitionedCall/assert_equal_11/Assert/AssertGuard/then/_272/output/_1006", "shape": [], "dtype": "bool"}, {"name": "StatefulPartitionedCall/assert_equal_13/Assert/AssertGuard/pivot_t/_286", "shape": [], "dtype": "bool"}, {"name": "StatefulPartitionedCall/onnx_tf_prefix_/mobilevit/encoder/layer.2/transformer/layer.0/attention/attention/Concat_2", "shape": [4], "dtype": "int32"}, {"name": "StatefulPartitionedCall/Where_5", "shape": [0, 1], "dtype": "int32"}, {"name": "StatefulPartitionedCall/GatherV2_5", "shape": [0], "dtype": "int32"}, {"name": "Func/StatefulPartitionedCall/assert_equal_13/Assert/AssertGuard/then/_282/output/_1018", "shape": [], "dtype": "bool"}, {"name": "StatefulPartitionedCall/assert_equal_15/Assert/AssertGuard/pivot_t/_296", "shape": [], "dtype": "bool"}, {"name": "Func/StatefulPartitionedCall/assert_equal_15/Assert/AssertGuard/then/_292/output/_1030", "shape": [], "dtype": "bool"}, {"name": "StatefulPartitionedCall/assert_equal_17/Assert/AssertGuard/pivot_t/_306", "shape": [], "dtype": "bool"}, {"name": "StatefulPartitionedCall/onnx_tf_prefix_/mobilevit/encoder/layer.2/transformer/layer.0/attention/attention/Concat_3", "shape": [3], "dtype": "int32"}, {"name": "StatefulPartitionedCall/Where_6", "shape": [0, 1], "dtype": "int32"}, {"name": "StatefulPartitionedCall/GatherV2_6", "shape": [0], "dtype": "int32"}, {"name": "Func/StatefulPartitionedCall/assert_equal_17/Assert/AssertGuard/then/_302/output/_1042", "shape": [], "dtype": "bool"}, {"name": "StatefulPartitionedCall/assert_equal_19/Assert/AssertGuard/pivot_t/_316", "shape": [], "dtype": "bool"}, {"name": "Func/StatefulPartitionedCall/assert_equal_19/Assert/AssertGuard/then/_312/output/_1054", "shape": [], "dtype": "bool"}, {"name": "StatefulPartitionedCall/assert_equal_21/Assert/AssertGuard/pivot_t/_326", "shape": [], "dtype": "bool"}, {"name": "StatefulPartitionedCall/onnx_tf_prefix_/mobilevit/encoder/layer.2/transformer/layer.1/attention/attention/Concat", "shape": [4], "dtype": "int32"}, {"name": "StatefulPartitionedCall/Where_7", "shape": [0, 1], "dtype": "int32"}, {"name": "StatefulPartitionedCall/GatherV2_7", "shape": [0], "dtype": "int32"}, {"name": "Func/StatefulPartitionedCall/assert_equal_21/Assert/AssertGuard/then/_322/output/_1066", "shape": [], "dtype": "bool"}, {"name": "StatefulPartitionedCall/assert_equal_23/Assert/AssertGuard/pivot_t/_336", "shape": [], "dtype": "bool"}, {"name": "Func/StatefulPartitionedCall/assert_equal_23/Assert/AssertGuard/then/_332/output/_1078", "shape": [], "dtype": "bool"}, {"name": "StatefulPartitionedCall/assert_equal_25/Assert/AssertGuard/pivot_t/_346", "shape": [], "dtype": "bool"}, {"name": "StatefulPartitionedCall/onnx_tf_prefix_/mobilevit/encoder/layer.2/transformer/layer.1/attention/attention/Concat_1", "shape": [4], "dtype": "int32"}, {"name": "StatefulPartitionedCall/Where_8", "shape": [0, 1], "dtype": "int32"}, {"name": "StatefulPartitionedCall/GatherV2_8", "shape": [0], "dtype": "int32"}, {"name": "Func/StatefulPartitionedCall/assert_equal_25/Assert/AssertGuard/then/_342/output/_1090", "shape": [], "dtype": "bool"}, {"name": "StatefulPartitionedCall/assert_equal_27/Assert/AssertGuard/pivot_t/_356", "shape": [], "dtype": "bool"}, {"name": "Func/StatefulPartitionedCall/assert_equal_27/Assert/AssertGuard/then/_352/output/_1102", "shape": [], "dtype": "bool"}, {"name": "StatefulPartitionedCall/assert_equal_29/Assert/AssertGuard/pivot_t/_366", "shape": [], "dtype": "bool"}, {"name": "StatefulPartitionedCall/onnx_tf_prefix_/mobilevit/encoder/layer.2/transformer/layer.1/attention/attention/Concat_2", "shape": [4], "dtype": "int32"}, {"name": "StatefulPartitionedCall/Where_9", "shape": [0, 1], "dtype": "int32"}, {"name": "StatefulPartitionedCall/GatherV2_9", "shape": [0], "dtype": "int32"}, {"name": "Func/StatefulPartitionedCall/assert_equal_29/Assert/AssertGuard/then/_362/output/_1114", "shape": [], "dtype": "bool"}, {"name": "StatefulPartitionedCall/assert_equal_31/Assert/AssertGuard/pivot_t/_376", "shape": [], "dtype": "bool"}, {"name": "Func/StatefulPartitionedCall/assert_equal_31/Assert/AssertGuard/then/_372/output/_1126", "shape": [], "dtype": "bool"}, {"name": "StatefulPartitionedCall/assert_equal_33/Assert/AssertGuard/pivot_t/_386", "shape": [], "dtype": "bool"}, {"name": "StatefulPartitionedCall/onnx_tf_prefix_/mobilevit/encoder/layer.2/transformer/layer.1/attention/attention/Concat_3", "shape": [3], "dtype": "int32"}, {"name": "StatefulPartitionedCall/Where_10", "shape": [0, 1], "dtype": "int32"}, {"name": "StatefulPartitionedCall/GatherV2_10", "shape": [0], "dtype": "int32"}, {"name": "Func/StatefulPartitionedCall/assert_equal_33/Assert/AssertGuard/then/_382/output/_1138", "shape": [], "dtype": "bool"}, {"name": "StatefulPartitionedCall/assert_equal_35/Assert/AssertGuard/pivot_t/_396", "shape": [], "dtype": "bool"}, {"name": "Func/StatefulPartitionedCall/assert_equal_35/Assert/AssertGuard/then/_392/output/_1150", "shape": [], "dtype": "bool"}, {"name": "StatefulPartitionedCall/assert_equal_37/Assert/AssertGuard/pivot_t/_406", "shape": [], "dtype": "bool"}, {"name": "StatefulPartitionedCall/onnx_tf_prefix_/mobilevit/encoder/layer.3/transformer/layer.0/attention/attention/Concat", "shape": [4], "dtype": "int32"}, {"name": "StatefulPartitionedCall/Where_17", "shape": [0, 1], "dtype": "int32"}, {"name": "StatefulPartitionedCall/GatherV2_17", "shape": [0], "dtype": "int32"}, {"name": "Func/StatefulPartitionedCall/assert_equal_37/Assert/AssertGuard/then/_402/output/_1162", "shape": [], "dtype": "bool"}, {"name": "StatefulPartitionedCall/assert_equal_39/Assert/AssertGuard/pivot_t/_416", "shape": [], "dtype": "bool"}, {"name": "Func/StatefulPartitionedCall/assert_equal_39/Assert/AssertGuard/then/_412/output/_1174", "shape": [], "dtype": "bool"}, {"name": "StatefulPartitionedCall/assert_equal_41/Assert/AssertGuard/pivot_t/_426", "shape": [], "dtype": "bool"}, {"name": "StatefulPartitionedCall/onnx_tf_prefix_/mobilevit/encoder/layer.3/transformer/layer.0/attention/attention/Concat_1", "shape": [4], "dtype": "int32"}, {"name": "StatefulPartitionedCall/Where_18", "shape": [0, 1], "dtype": "int32"}, {"name": "StatefulPartitionedCall/GatherV2_18", "shape": [0], "dtype": "int32"}, {"name": "Func/StatefulPartitionedCall/assert_equal_41/Assert/AssertGuard/then/_422/output/_1186", "shape": [], "dtype": "bool"}, {"name": "StatefulPartitionedCall/assert_equal_43/Assert/AssertGuard/pivot_t/_436", "shape": [], "dtype": "bool"}, {"name": "Func/StatefulPartitionedCall/assert_equal_43/Assert/AssertGuard/then/_432/output/_1198", "shape": [], "dtype": "bool"}, {"name": "StatefulPartitionedCall/assert_equal_45/Assert/AssertGuard/pivot_t/_446", "shape": [], "dtype": "bool"}, {"name": "StatefulPartitionedCall/onnx_tf_prefix_/mobilevit/encoder/layer.3/transformer/layer.0/attention/attention/Concat_2", "shape": [4], "dtype": "int32"}, {"name": "StatefulPartitionedCall/Where_19", "shape": [0, 1], "dtype": "int32"}, {"name": "StatefulPartitionedCall/GatherV2_19", "shape": [0], "dtype": "int32"}, {"name": "Func/StatefulPartitionedCall/assert_equal_45/Assert/AssertGuard/then/_442/output/_1210", "shape": [], "dtype": "bool"}, {"name": "StatefulPartitionedCall/assert_equal_47/Assert/AssertGuard/pivot_t/_456", "shape": [], "dtype": "bool"}, {"name": "Func/StatefulPartitionedCall/assert_equal_47/Assert/AssertGuard/then/_452/output/_1222", "shape": [], "dtype": "bool"}, {"name": "StatefulPartitionedCall/assert_equal_49/Assert/AssertGuard/pivot_t/_466", "shape": [], "dtype": "bool"}, {"name": "StatefulPartitionedCall/onnx_tf_prefix_/mobilevit/encoder/layer.3/transformer/layer.0/attention/attention/Concat_3", "shape": [3], "dtype": "int32"}, {"name": "StatefulPartitionedCall/Where_20", "shape": [0, 1], "dtype": "int32"}, {"name": "StatefulPartitionedCall/GatherV2_20", "shape": [0], "dtype": "int32"}, {"name": "Func/StatefulPartitionedCall/assert_equal_49/Assert/AssertGuard/then/_462/output/_1234", "shape": [], "dtype": "bool"}, {"name": "StatefulPartitionedCall/assert_equal_51/Assert/AssertGuard/pivot_t/_476", "shape": [], "dtype": "bool"}, {"name": "Func/StatefulPartitionedCall/assert_equal_51/Assert/AssertGuard/then/_472/output/_1246", "shape": [], "dtype": "bool"}, {"name": "StatefulPartitionedCall/assert_equal_53/Assert/AssertGuard/pivot_t/_486", "shape": [], "dtype": "bool"}, {"name": "StatefulPartitionedCall/onnx_tf_prefix_/mobilevit/encoder/layer.3/transformer/layer.1/attention/attention/Concat", "shape": [4], "dtype": "int32"}, {"name": "StatefulPartitionedCall/Where_21", "shape": [0, 1], "dtype": "int32"}, {"name": "StatefulPartitionedCall/GatherV2_21", "shape": [0], "dtype": "int32"}, {"name": "Func/StatefulPartitionedCall/assert_equal_53/Assert/AssertGuard/then/_482/output/_1258", "shape": [], "dtype": "bool"}, {"name": "StatefulPartitionedCall/assert_equal_55/Assert/AssertGuard/pivot_t/_496", "shape": [], "dtype": "bool"}, {"name": "Func/StatefulPartitionedCall/assert_equal_55/Assert/AssertGuard/then/_492/output/_1270", "shape": [], "dtype": "bool"}, {"name": "StatefulPartitionedCall/assert_equal_57/Assert/AssertGuard/pivot_t/_506", "shape": [], "dtype": "bool"}, {"name": "StatefulPartitionedCall/onnx_tf_prefix_/mobilevit/encoder/layer.3/transformer/layer.1/attention/attention/Concat_1", "shape": [4], "dtype": "int32"}, {"name": "StatefulPartitionedCall/Where_22", "shape": [0, 1], "dtype": "int32"}, {"name": "StatefulPartitionedCall/GatherV2_22", "shape": [0], "dtype": "int32"}, {"name": "Func/StatefulPartitionedCall/assert_equal_57/Assert/AssertGuard/then/_502/output/_1282", "shape": [], "dtype": "bool"}, {"name": "StatefulPartitionedCall/assert_equal_59/Assert/AssertGuard/pivot_t/_516", "shape": [], "dtype": "bool"}, {"name": "Func/StatefulPartitionedCall/assert_equal_59/Assert/AssertGuard/then/_512/output/_1294", "shape": [], "dtype": "bool"}, {"name": "StatefulPartitionedCall/assert_equal_61/Assert/AssertGuard/pivot_t/_526", "shape": [], "dtype": "bool"}, {"name": "StatefulPartitionedCall/onnx_tf_prefix_/mobilevit/encoder/layer.3/transformer/layer.1/attention/attention/Concat_2", "shape": [4], "dtype": "int32"}, {"name": "StatefulPartitionedCall/Where_23", "shape": [0, 1], "dtype": "int32"}, {"name": "StatefulPartitionedCall/GatherV2_23", "shape": [0], "dtype": "int32"}, {"name": "Func/StatefulPartitionedCall/assert_equal_61/Assert/AssertGuard/then/_522/output/_1306", "shape": [], "dtype": "bool"}, {"name": "StatefulPartitionedCall/assert_equal_63/Assert/AssertGuard/pivot_t/_536", "shape": [], "dtype": "bool"}, {"name": "Func/StatefulPartitionedCall/assert_equal_63/Assert/AssertGuard/then/_532/output/_1318", "shape": [], "dtype": "bool"}, {"name": "StatefulPartitionedCall/assert_equal_65/Assert/AssertGuard/pivot_t/_546", "shape": [], "dtype": "bool"}, {"name": "StatefulPartitionedCall/onnx_tf_prefix_/mobilevit/encoder/layer.3/transformer/layer.1/attention/attention/Concat_3", "shape": [3], "dtype": "int32"}, {"name": "StatefulPartitionedCall/Where_24", "shape": [0, 1], "dtype": "int32"}, {"name": "StatefulPartitionedCall/GatherV2_24", "shape": [0], "dtype": "int32"}, {"name": "Func/StatefulPartitionedCall/assert_equal_65/Assert/AssertGuard/then/_542/output/_1330", "shape": [], "dtype": "bool"}, {"name": "StatefulPartitionedCall/assert_equal_67/Assert/AssertGuard/pivot_t/_556", "shape": [], "dtype": "bool"}, {"name": "Func/StatefulPartitionedCall/assert_equal_67/Assert/AssertGuard/then/_552/output/_1342", "shape": [], "dtype": "bool"}, {"name": "StatefulPartitionedCall/assert_equal_69/Assert/AssertGuard/pivot_t/_566", "shape": [], "dtype": "bool"}, {"name": "StatefulPartitionedCall/onnx_tf_prefix_/mobilevit/encoder/layer.3/transformer/layer.2/attention/attention/Concat", "shape": [4], "dtype": "int32"}, {"name": "StatefulPartitionedCall/Where_25", "shape": [0, 1], "dtype": "int32"}, {"name": "StatefulPartitionedCall/GatherV2_25", "shape": [0], "dtype": "int32"}, {"name": "Func/StatefulPartitionedCall/assert_equal_69/Assert/AssertGuard/then/_562/output/_1354", "shape": [], "dtype": "bool"}, {"name": "StatefulPartitionedCall/assert_equal_71/Assert/AssertGuard/pivot_t/_576", "shape": [], "dtype": "bool"}, {"name": "Func/StatefulPartitionedCall/assert_equal_71/Assert/AssertGuard/then/_572/output/_1366", "shape": [], "dtype": "bool"}, {"name": "StatefulPartitionedCall/assert_equal_73/Assert/AssertGuard/pivot_t/_586", "shape": [], "dtype": "bool"}, {"name": "StatefulPartitionedCall/onnx_tf_prefix_/mobilevit/encoder/layer.3/transformer/layer.2/attention/attention/Concat_1", "shape": [4], "dtype": "int32"}, {"name": "StatefulPartitionedCall/Where_26", "shape": [0, 1], "dtype": "int32"}, {"name": "StatefulPartitionedCall/GatherV2_26", "shape": [0], "dtype": "int32"}, {"name": "Func/StatefulPartitionedCall/assert_equal_73/Assert/AssertGuard/then/_582/output/_1378", "shape": [], "dtype": "bool"}, {"name": "StatefulPartitionedCall/assert_equal_75/Assert/AssertGuard/pivot_t/_596", "shape": [], "dtype": "bool"}, {"name": "Func/StatefulPartitionedCall/assert_equal_75/Assert/AssertGuard/then/_592/output/_1390", "shape": [], "dtype": "bool"}, {"name": "StatefulPartitionedCall/assert_equal_77/Assert/AssertGuard/pivot_t/_606", "shape": [], "dtype": "bool"}, {"name": "StatefulPartitionedCall/onnx_tf_prefix_/mobilevit/encoder/layer.3/transformer/layer.2/attention/attention/Concat_2", "shape": [4], "dtype": "int32"}, {"name": "StatefulPartitionedCall/Where_27", "shape": [0, 1], "dtype": "int32"}, {"name": "StatefulPartitionedCall/GatherV2_27", "shape": [0], "dtype": "int32"}, {"name": "Func/StatefulPartitionedCall/assert_equal_77/Assert/AssertGuard/then/_602/output/_1402", "shape": [], "dtype": "bool"}, {"name": "StatefulPartitionedCall/assert_equal_79/Assert/AssertGuard/pivot_t/_616", "shape": [], "dtype": "bool"}, {"name": "Func/StatefulPartitionedCall/assert_equal_79/Assert/AssertGuard/then/_612/output/_1414", "shape": [], "dtype": "bool"}, {"name": "StatefulPartitionedCall/assert_equal_81/Assert/AssertGuard/pivot_t/_626", "shape": [], "dtype": "bool"}, {"name": "StatefulPartitionedCall/onnx_tf_prefix_/mobilevit/encoder/layer.3/transformer/layer.2/attention/attention/Concat_3", "shape": [3], "dtype": "int32"}, {"name": "StatefulPartitionedCall/Where_28", "shape": [0, 1], "dtype": "int32"}, {"name": "StatefulPartitionedCall/GatherV2_28", "shape": [0], "dtype": "int32"}, {"name": "Func/StatefulPartitionedCall/assert_equal_81/Assert/AssertGuard/then/_622/output/_1426", "shape": [], "dtype": "bool"}, {"name": "StatefulPartitionedCall/assert_equal_83/Assert/AssertGuard/pivot_t/_636", "shape": [], "dtype": "bool"}, {"name": "Func/StatefulPartitionedCall/assert_equal_83/Assert/AssertGuard/then/_632/output/_1438", "shape": [], "dtype": "bool"}, {"name": "StatefulPartitionedCall/assert_equal_85/Assert/AssertGuard/pivot_t/_646", "shape": [], "dtype": "bool"}, {"name": "StatefulPartitionedCall/onnx_tf_prefix_/mobilevit/encoder/layer.3/transformer/layer.3/attention/attention/Concat", "shape": [4], "dtype": "int32"}, {"name": "StatefulPartitionedCall/Where_29", "shape": [0, 1], "dtype": "int32"}, {"name": "StatefulPartitionedCall/GatherV2_29", "shape": [0], "dtype": "int32"}, {"name": "Func/StatefulPartitionedCall/assert_equal_85/Assert/AssertGuard/then/_642/output/_1450", "shape": [], "dtype": "bool"}, {"name": "StatefulPartitionedCall/assert_equal_87/Assert/AssertGuard/pivot_t/_656", "shape": [], "dtype": "bool"}, {"name": "Func/StatefulPartitionedCall/assert_equal_87/Assert/AssertGuard/then/_652/output/_1462", "shape": [], "dtype": "bool"}, {"name": "StatefulPartitionedCall/assert_equal_89/Assert/AssertGuard/pivot_t/_666", "shape": [], "dtype": "bool"}, {"name": "StatefulPartitionedCall/onnx_tf_prefix_/mobilevit/encoder/layer.3/transformer/layer.3/attention/attention/Concat_1", "shape": [4], "dtype": "int32"}, {"name": "StatefulPartitionedCall/Where_30", "shape": [0, 1], "dtype": "int32"}, {"name": "StatefulPartitionedCall/GatherV2_30", "shape": [0], "dtype": "int32"}, {"name": "Func/StatefulPartitionedCall/assert_equal_89/Assert/AssertGuard/then/_662/output/_1474", "shape": [], "dtype": "bool"}, {"name": "StatefulPartitionedCall/assert_equal_91/Assert/AssertGuard/pivot_t/_676", "shape": [], "dtype": "bool"}, {"name": "Func/StatefulPartitionedCall/assert_equal_91/Assert/AssertGuard/then/_672/output/_1486", "shape": [], "dtype": "bool"}, {"name": "StatefulPartitionedCall/assert_equal_93/Assert/AssertGuard/pivot_t/_686", "shape": [], "dtype": "bool"}, {"name": "StatefulPartitionedCall/onnx_tf_prefix_/mobilevit/encoder/layer.3/transformer/layer.3/attention/attention/Concat_2", "shape": [4], "dtype": "int32"}, {"name": "StatefulPartitionedCall/Where_31", "shape": [0, 1], "dtype": "int32"}, {"name": "StatefulPartitionedCall/GatherV2_31", "shape": [0], "dtype": "int32"}, {"name": "Func/StatefulPartitionedCall/assert_equal_93/Assert/AssertGuard/then/_682/output/_1498", "shape": [], "dtype": "bool"}, {"name": "StatefulPartitionedCall/assert_equal_95/Assert/AssertGuard/pivot_t/_696", "shape": [], "dtype": "bool"}, {"name": "Func/StatefulPartitionedCall/assert_equal_95/Assert/AssertGuard/then/_692/output/_1510", "shape": [], "dtype": "bool"}, {"name": "StatefulPartitionedCall/assert_equal_97/Assert/AssertGuard/pivot_t/_706", "shape": [], "dtype": "bool"}, {"name": "StatefulPartitionedCall/onnx_tf_prefix_/mobilevit/encoder/layer.3/transformer/layer.3/attention/attention/Concat_3", "shape": [3], "dtype": "int32"}, {"name": "StatefulPartitionedCall/Where_32", "shape": [0, 1], "dtype": "int32"}, {"name": "StatefulPartitionedCall/GatherV2_32", "shape": [0], "dtype": "int32"}, {"name": "Func/StatefulPartitionedCall/assert_equal_97/Assert/AssertGuard/then/_702/output/_1522", "shape": [], "dtype": "bool"}, {"name": "StatefulPartitionedCall/assert_equal_99/Assert/AssertGuard/pivot_t/_716", "shape": [], "dtype": "bool"}, {"name": "Func/StatefulPartitionedCall/assert_equal_99/Assert/AssertGuard/then/_712/output/_1534", "shape": [], "dtype": "bool"}, {"name": "StatefulPartitionedCall/assert_equal_101/Assert/AssertGuard/pivot_t/_726", "shape": [], "dtype": "bool"}, {"name": "StatefulPartitionedCall/onnx_tf_prefix_/mobilevit/encoder/layer.4/transformer/layer.0/attention/attention/Concat", "shape": [4], "dtype": "int32"}, {"name": "StatefulPartitionedCall/Where_39", "shape": [0, 1], "dtype": "int32"}, {"name": "StatefulPartitionedCall/GatherV2_39", "shape": [0], "dtype": "int32"}, {"name": "Func/StatefulPartitionedCall/assert_equal_101/Assert/AssertGuard/then/_722/output/_1546", "shape": [], "dtype": "bool"}, {"name": "StatefulPartitionedCall/assert_equal_103/Assert/AssertGuard/pivot_t/_736", "shape": [], "dtype": "bool"}, {"name": "Func/StatefulPartitionedCall/assert_equal_103/Assert/AssertGuard/then/_732/output/_1558", "shape": [], "dtype": "bool"}, {"name": "StatefulPartitionedCall/assert_equal_105/Assert/AssertGuard/pivot_t/_746", "shape": [], "dtype": "bool"}, {"name": "StatefulPartitionedCall/onnx_tf_prefix_/mobilevit/encoder/layer.4/transformer/layer.0/attention/attention/Concat_1", "shape": [4], "dtype": "int32"}, {"name": "StatefulPartitionedCall/Where_40", "shape": [0, 1], "dtype": "int32"}, {"name": "StatefulPartitionedCall/GatherV2_40", "shape": [0], "dtype": "int32"}, {"name": "Func/StatefulPartitionedCall/assert_equal_105/Assert/AssertGuard/then/_742/output/_1570", "shape": [], "dtype": "bool"}, {"name": "StatefulPartitionedCall/assert_equal_107/Assert/AssertGuard/pivot_t/_756", "shape": [], "dtype": "bool"}, {"name": "Func/StatefulPartitionedCall/assert_equal_107/Assert/AssertGuard/then/_752/output/_1582", "shape": [], "dtype": "bool"}, {"name": "StatefulPartitionedCall/assert_equal_109/Assert/AssertGuard/pivot_t/_766", "shape": [], "dtype": "bool"}, {"name": "StatefulPartitionedCall/onnx_tf_prefix_/mobilevit/encoder/layer.4/transformer/layer.0/attention/attention/Concat_2", "shape": [4], "dtype": "int32"}, {"name": "StatefulPartitionedCall/Where_41", "shape": [0, 1], "dtype": "int32"}, {"name": "StatefulPartitionedCall/GatherV2_41", "shape": [0], "dtype": "int32"}, {"name": "Func/StatefulPartitionedCall/assert_equal_109/Assert/AssertGuard/then/_762/output/_1594", "shape": [], "dtype": "bool"}, {"name": "StatefulPartitionedCall/assert_equal_111/Assert/AssertGuard/pivot_t/_776", "shape": [], "dtype": "bool"}, {"name": "Func/StatefulPartitionedCall/assert_equal_111/Assert/AssertGuard/then/_772/output/_1606", "shape": [], "dtype": "bool"}, {"name": "StatefulPartitionedCall/assert_equal_113/Assert/AssertGuard/pivot_t/_786", "shape": [], "dtype": "bool"}, {"name": "StatefulPartitionedCall/onnx_tf_prefix_/mobilevit/encoder/layer.4/transformer/layer.0/attention/attention/Concat_3", "shape": [3], "dtype": "int32"}, {"name": "StatefulPartitionedCall/Where_42", "shape": [0, 1], "dtype": "int32"}, {"name": "StatefulPartitionedCall/GatherV2_42", "shape": [0], "dtype": "int32"}, {"name": "Func/StatefulPartitionedCall/assert_equal_113/Assert/AssertGuard/then/_782/output/_1618", "shape": [], "dtype": "bool"}, {"name": "StatefulPartitionedCall/assert_equal_115/Assert/AssertGuard/pivot_t/_796", "shape": [], "dtype": "bool"}, {"name": "Func/StatefulPartitionedCall/assert_equal_115/Assert/AssertGuard/then/_792/output/_1630", "shape": [], "dtype": "bool"}, {"name": "StatefulPartitionedCall/assert_equal_117/Assert/AssertGuard/pivot_t/_806", "shape": [], "dtype": "bool"}, {"name": "StatefulPartitionedCall/onnx_tf_prefix_/mobilevit/encoder/layer.4/transformer/layer.1/attention/attention/Concat", "shape": [4], "dtype": "int32"}, {"name": "StatefulPartitionedCall/Where_43", "shape": [0, 1], "dtype": "int32"}, {"name": "StatefulPartitionedCall/GatherV2_43", "shape": [0], "dtype": "int32"}, {"name": "Func/StatefulPartitionedCall/assert_equal_117/Assert/AssertGuard/then/_802/output/_1642", "shape": [], "dtype": "bool"}, {"name": "StatefulPartitionedCall/assert_equal_119/Assert/AssertGuard/pivot_t/_816", "shape": [], "dtype": "bool"}, {"name": "Func/StatefulPartitionedCall/assert_equal_119/Assert/AssertGuard/then/_812/output/_1654", "shape": [], "dtype": "bool"}, {"name": "StatefulPartitionedCall/assert_equal_121/Assert/AssertGuard/pivot_t/_826", "shape": [], "dtype": "bool"}, {"name": "StatefulPartitionedCall/onnx_tf_prefix_/mobilevit/encoder/layer.4/transformer/layer.1/attention/attention/Concat_1", "shape": [4], "dtype": "int32"}, {"name": "StatefulPartitionedCall/Where_44", "shape": [0, 1], "dtype": "int32"}, {"name": "StatefulPartitionedCall/GatherV2_44", "shape": [0], "dtype": "int32"}, {"name": "Func/StatefulPartitionedCall/assert_equal_121/Assert/AssertGuard/then/_822/output/_1666", "shape": [], "dtype": "bool"}, {"name": "StatefulPartitionedCall/assert_equal_123/Assert/AssertGuard/pivot_t/_836", "shape": [], "dtype": "bool"}, {"name": "Func/StatefulPartitionedCall/assert_equal_123/Assert/AssertGuard/then/_832/output/_1678", "shape": [], "dtype": "bool"}, {"name": "StatefulPartitionedCall/assert_equal_125/Assert/AssertGuard/pivot_t/_846", "shape": [], "dtype": "bool"}, {"name": "StatefulPartitionedCall/onnx_tf_prefix_/mobilevit/encoder/layer.4/transformer/layer.1/attention/attention/Concat_2", "shape": [4], "dtype": "int32"}, {"name": "StatefulPartitionedCall/Where_45", "shape": [0, 1], "dtype": "int32"}, {"name": "StatefulPartitionedCall/GatherV2_45", "shape": [0], "dtype": "int32"}, {"name": "Func/StatefulPartitionedCall/assert_equal_125/Assert/AssertGuard/then/_842/output/_1690", "shape": [], "dtype": "bool"}, {"name": "StatefulPartitionedCall/assert_equal_127/Assert/AssertGuard/pivot_t/_856", "shape": [], "dtype": "bool"}, {"name": "Func/StatefulPartitionedCall/assert_equal_127/Assert/AssertGuard/then/_852/output/_1702", "shape": [], "dtype": "bool"}, {"name": "StatefulPartitionedCall/assert_equal_129/Assert/AssertGuard/pivot_t/_866", "shape": [], "dtype": "bool"}, {"name": "StatefulPartitionedCall/onnx_tf_prefix_/mobilevit/encoder/layer.4/transformer/layer.1/attention/attention/Concat_3", "shape": [3], "dtype": "int32"}, {"name": "StatefulPartitionedCall/Where_46", "shape": [0, 1], "dtype": "int32"}, {"name": "StatefulPartitionedCall/GatherV2_46", "shape": [0], "dtype": "int32"}, {"name": "Func/StatefulPartitionedCall/assert_equal_129/Assert/AssertGuard/then/_862/output/_1714", "shape": [], "dtype": "bool"}, {"name": "StatefulPartitionedCall/assert_equal_131/Assert/AssertGuard/pivot_t/_876", "shape": [], "dtype": "bool"}, {"name": "Func/StatefulPartitionedCall/assert_equal_131/Assert/AssertGuard/then/_872/output/_1726", "shape": [], "dtype": "bool"}, {"name": "StatefulPartitionedCall/assert_equal_133/Assert/AssertGuard/pivot_t/_886", "shape": [], "dtype": "bool"}, {"name": "StatefulPartitionedCall/onnx_tf_prefix_/mobilevit/encoder/layer.4/transformer/layer.2/attention/attention/Concat", "shape": [4], "dtype": "int32"}, {"name": "StatefulPartitionedCall/Where_47", "shape": [0, 1], "dtype": "int32"}, {"name": "StatefulPartitionedCall/GatherV2_47", "shape": [0], "dtype": "int32"}, {"name": "Func/StatefulPartitionedCall/assert_equal_133/Assert/AssertGuard/then/_882/output/_1738", "shape": [], "dtype": "bool"}, {"name": "StatefulPartitionedCall/assert_equal_135/Assert/AssertGuard/pivot_t/_896", "shape": [], "dtype": "bool"}, {"name": "Func/StatefulPartitionedCall/assert_equal_135/Assert/AssertGuard/then/_892/output/_1750", "shape": [], "dtype": "bool"}, {"name": "StatefulPartitionedCall/assert_equal_137/Assert/AssertGuard/pivot_t/_906", "shape": [], "dtype": "bool"}, {"name": "StatefulPartitionedCall/onnx_tf_prefix_/mobilevit/encoder/layer.4/transformer/layer.2/attention/attention/Concat_1", "shape": [4], "dtype": "int32"}, {"name": "StatefulPartitionedCall/Where_48", "shape": [0, 1], "dtype": "int32"}, {"name": "StatefulPartitionedCall/GatherV2_48", "shape": [0], "dtype": "int32"}, {"name": "Func/StatefulPartitionedCall/assert_equal_137/Assert/AssertGuard/then/_902/output/_1762", "shape": [], "dtype": "bool"}, {"name": "StatefulPartitionedCall/assert_equal_139/Assert/AssertGuard/pivot_t/_916", "shape": [], "dtype": "bool"}, {"name": "Func/StatefulPartitionedCall/assert_equal_139/Assert/AssertGuard/then/_912/output/_1774", "shape": [], "dtype": "bool"}, {"name": "StatefulPartitionedCall/assert_equal_141/Assert/AssertGuard/pivot_t/_926", "shape": [], "dtype": "bool"}, {"name": "StatefulPartitionedCall/onnx_tf_prefix_/mobilevit/encoder/layer.4/transformer/layer.2/attention/attention/Concat_2", "shape": [4], "dtype": "int32"}, {"name": "StatefulPartitionedCall/Where_49", "shape": [0, 1], "dtype": "int32"}, {"name": "StatefulPartitionedCall/GatherV2_49", "shape": [0], "dtype": "int32"}, {"name": "Func/StatefulPartitionedCall/assert_equal_141/Assert/AssertGuard/then/_922/output/_1786", "shape": [], "dtype": "bool"}, {"name": "StatefulPartitionedCall/assert_equal_143/Assert/AssertGuard/pivot_t/_936", "shape": [], "dtype": "bool"}, {"name": "Func/StatefulPartitionedCall/assert_equal_143/Assert/AssertGuard/then/_932/output/_1798", "shape": [], "dtype": "bool"}, {"name": "StatefulPartitionedCall/onnx_tf_prefix_/mobilevit/encoder/layer.4/transformer/layer.2/attention/attention/Concat_3", "shape": [3], "dtype": "int32"}, {"name": "StatefulPartitionedCall/Where_50", "shape": [0, 1], "dtype": "int32"}, {"name": "StatefulPartitionedCall/GatherV2_50", "shape": [0], "dtype": "int32"}]}]}